Trabajo2/detector_fraude/modelo/Notebooks/mlp_model.pt (torch, 71135 bytes, 14 tensors)

model.0.weight f4 [128, 55]
00000000: 9e0b 2fbe 14b1 85bd c62f 7ebd b1ec d23e
00000010: 3f2b ac3d c372 ee3d 3c21 0c3d 5837 003e
00000020: c3d7 f53d 2fa7 933e d896 6b3e 89d1 8b3e
00000030: eeeb 5d3e b805 2c3e a4c7 8b3e 76ae c63e
00000040: d047 493e c99e db3d c223 39be 7480 4cbb
00000050: 3333 7cbd 9f5a 163e 4d3b 993e 56d8 913e
00000060: a5fa 17be 0a99 a53c 4361 d8be 01df f93e
00000070: 9209 593e bfd9 423e dffb 94bd 42bc 7e3e
00000080: 59ab 0cbe 2020 64bd ed93 fe3b 5b5b 9d3d
00000090: e721 73bc 3c26 0d3e 5f0e 8f3e 5cca 07be
000000a0: ffe9 2d3e 7449 72bb 7bb6 643e fce1 373e
000000b0: 5a76 05bf 8c1e 0abc d74c 8abe e68c 91bd
000000c0: ca4e 3c3e de1e f63b ade6 c43e 2a8e 75be
000000d0: 43d8 52be 74c8 87be af8c c6bd 3dc1 5cbe
000000e0: ae62 0dbd 3bf9 da3e 458a 89bf 75e0 48be
000000f0: 0671 523d c6b1 ca3d 4fe0 42bd f62f 99be
00000100: cff4 c7bd fee9 7ebe 4250 d4bc 6d01 e03d
00000110: 11e9 403d 4205 aabe af67 a53e 60e0 dcbe
00000120: 6f99 b1be 75ed 2e3e c039 7abd fc0a 16bd
00000130: 6852 103e 1bbc 9fbd 7d54 973e 5ab8 f1bd
00000140: eee6 8a3e ad44 1b3d e5b6 263d d9f9 b33e
00000150: a979 24bd bed3 9e3b 3a5f 653d 9eed 0a3e
00000160: f1a4 a13e c93f 1c3f e2f9 193e f9ff 8cbe
00000170: d21a 943d ae03 de3d 50a3 973e 02cf 10bf
00000180: 2caf 843d f0a3 f03d bc8b e1be 5e7b 36bf
00000190: cda5 b1bd da79 e63e 8a7d c13d 2724 a83d
000001a0: dbeb 6b3e 2980 56be bb07 ddbd 7eae 533e
000001b0: a0e4 ad3e 6ffc 4c3e 1463 c8bd 1a96 3cbe
000001c0: 2549 dd3e 61cc 35bf ff43 babd 1543 41bc
000001d0: e6c1 42bd 67b4 923d 7ab3 11bf 7ccb 89bb
000001e0: 95cd 15be c032 0abe da31 1abe ac0d dabc
000001f0: 96c4 8fbe ed05 023f a7f0 e3be fe93 adbe
00000200: 4b63 b0bd a1f1 a4be c42d 05bd 5517 c83d
00000210: fecd 19bc 98ba 093f 186b 96be feed 3d3e
00000220: dc97 89bd d1e7 723e 690d 9f3d d71c 863d
00000230: f4b9 503e 2e7b b03e 9db0 a53d fb1d 0b3e
00000240: 5b45 d73e 641c 8a3e 74b8 0cbe 5530 a2bd
00000250: 22c8 603e e756 4e3d 2cbc 9bbe b5be 8e3e
00000260: b2b7 1e3d d4f2 853e 9c17 4cbf 3411 3bbc
00000270: c0ce ed3e 9e16 103e bbb6 703d 7632 913e
00000280: dbfd c0be 0dd9 12be 0f6f ae3d 5e76 ad3e
00000290: 068c b73e 2adf bd3d 3315 f43d 9918 c6bc
000002a0: 5803 0f3f 063e d7b7 41fd 603e e57e afbd
000002b0: 7514 3c3e 96d8 8c3e b814 cd3e 5229 873d
000002c0: 6559 823e f04c 983e fc58 8e3e 532f 5bbc
000002d0: 983a 513e 8ee3 bebe f81e dbbe 0e69 693d
000002e0: 10fc 17be c0c9 e43c 0143 85be f863 cf3c
000002f0: 25cd 903e ec77 2d3e 5326 523e 7191 8b3e
00000300: d9b0 b33b 8e43 42bd e154 c03e 91d5 7bbc
00000310: 2926 0a3e 0704 a23e 5ef6 223d 3f17 b5bc
00000320: 20d9 c0bd a03b 88be 9932 633d 96f3 a73d
00000330: 14c2 d33d 292a ee3e 004b 353e 8aa0 36be
00000340: 6173 ad3e d162 283f eb01 73be 5558 953e
00000350: ba9e 22be 32d3 0e3c abf4 bc3d 6d5b 183f
00000360: b3fb b53e f79c ecbc 96ab 92be 0efc 38be
00000370: 6069 f9bd 68dc 51bd 37b2 7e3c e457 b13e
00000380: fc22 bb3d 983f debd b748 1a3e c48b e9be
00000390: 3094 5a3d a4fe 74be 06da a33e 97f2 b63d
000003a0: 9a09 f8be 141c 8dbe bc24 483e ad15 02be
000003b0: 1974 d6bd 2ee7 273d d41f 25be 5060 a9bd
000003c0: 050b aabe a477 49be ae0e 6bbe 6159 7ebd
000003d0: e1c2 e4bd 0542 abbd eefd cabb 36e5 a4bd
000003e0: b503 053d 36fd 323e 7dd4 fbbd 4042 8b3c
000003f0: c339 e33d b371 b0be aeb6 e5bd 0a87 d7bd
-0.17094275 -0.065279156 -0.06205728 0.41196206 0.08406686 0.11642983 0.034211382 0.12521112
0.12004044 0.28838488 0.23006761 0.273083 0.21672031 0.16799057 0.2730075 0.38804978
0.196563 0.10723645 -0.18080047 -0.0031204494 -0.061572265 0.14683007 0.29928055 0.28485364
-0.14841707 0.020214576 -0.42261705 0.4880295 0.21195057 0.19028376 -0.07274603 0.24876502
-0.13737239 -0.0556947 0.007769099 0.0768344 -0.014839626 0.13784117 0.27940652 -0.13260788
0.16983794 -0.003697005 0.22335236 0.179573 -0.52133715 -0.0084301345 -0.2701175 -0.07106952
0.1838943 0.007511004 0.38457242 -0.23980013 -0.2059031 -0.2652012 -0.09694802 -0.2155809
-0.034517936 0.42768273 -1.0745322 -0.19616874 0.05137732 0.09897189 -0.0475772 -0.29919404
-0.097634904 -0.24893948 -0.025917176 0.10937772 0.04709727 -0.33207136 0.32305667 -0.43139935
-0.34687373 0.1708277 -0.06109023 -0.03663157 0.14093935 -0.0779955 0.29556647 -0.118027404
0.2712931 0.03790729 0.040701766 0.35151556 -0.040155087 0.004847019 0.05599902 0.13567206
0.31571153 0.6103483 0.15036729 -0.27539042 0.07231678 0.108405456 0.29616785 -0.5656587
0.06478724 0.117500186 -0.4405192 -0.71281993 -0.08674202 0.4501484 0.09447773 0.082100205
0.2303919 -0.20947327 -0.1079249 0.20672032 0.3396349 0.20018171 -0.09784523 -0.18416634
0.43219867 -0.7101498 -0.090950005 -0.011795779 -0.047548197 0.07163315 -0.56914485 -0.0042051654
-0.14629205 -0.13495922 -0.1505808 -0.026617847 -0.2807967 0.5079029 -0.4451954 -0.33901972
-0.08612689 -0.32215598 -0.03251435 0.09770075 -0.009387491 0.53800344 -0.2937858 0.18547818
-0.06718418 0.23721243 0.0776623 0.065484695 0.20383435 0.3446898 0.08090327 0.13585655
0.42045102 0.26974785 -0.13742238 -0.07919375 0.21951345 0.050375845 -0.30417 0.27879873
0.038749404 0.26161826 -0.79723525 -0.011417676 0.464468 0.14071128 0.058768015 0.2835881
-0.37693676 -0.14340611 0.085172765 0.3387937 0.35849017 0.09271081 0.11918106 -0.024181651
0.5586448 -2.565888e-05 0.21971609 -0.08569125 0.18367179 0.27508992 0.4005487 0.06599678
0.25458828 0.297462 0.27802265 -0.013377982 0.20432508 -0.37282985 -0.42797065 0.056984954
-0.14842248 0.027928233 -0.26027682 0.025316224 0.28281513 0.16940278 0.20522432 0.272594
0.0054837284 -0.047427706 0.37564757 -0.015370742 0.1349112 0.31643698 0.039785735 -0.022105811
-0.09416413 -0.2660799 0.055468176 0.08200757 0.10339752 0.4651654 0.17704391 -0.17834678
0.3387709 0.6577578 -0.237312 0.29168954 -0.15880862 0.008717345 0.09226354 0.59514505
0.35543594 -0.02888344 -0.28646535 -0.18064901 -0.12178302 -0.051235586 0.015545419 0.34637368
0.09137532 -0.10851973 0.15066801 -0.45614445 0.05336398 -0.23925263 0.32002276 0.08932989
-0.48444825 -0.27560484 0.19545263 -0.12703581 -0.104713626 0.040991955 -0.16125423 -0.08270323
-0.33211532 -0.19674546 -0.22954819 -0.062096957 -0.11169983 -0.083622016 -0.0061948216 -0.08051531
0.03247424 0.17479405 -0.12296388 0.016999364 0.110950015 -0.34461746 -0.11216484 -0.105238035

model.0.bias f4 [128]
00000000: 3545 cb3e 6254 753f 1bfc 683f 9da9 b53f
00000010: 5b1c 30be 6140 d53c 34be b73e 9d4b f83d
00000020: ac0f e23f 14c8 a63e 5f28 273f fa86 453e
00000030: fa81 37bd 814c aa3e e8d2 5bbd 62d9 8b3e
00000040: c7f7 ff3e 1d1e 9c3f 7d7f bc3f 1380 bf3e
00000050: a6e6 8d3e aa1b 093e e018 503f b380 e1bd
00000060: 6fb6 11bd dc92 e63d 3088 8fbd 52c3 6a3f
00000070: 0218 90be d173 a0be 6eec 323e 81c1 20be
00000080: ff7e 323e d3a5 a3bd eed4 49be f29b 873d
00000090: 6166 babe bebe 6e3f c5ca 1d3d c8a5 6b3f
000000a0: e254 2dbe 7344 6abe b8f2 b4ba 4806 a1bd
000000b0: 4160 9b3e e47e c8bd fc95 70be 36a9 5e3e
000000c0: d73c 5a3f b83d 193c 5ca5 b13e 0a32 873f
000000d0: 0ce3 01be 8457 a93f 1042 b1bd 4cf0 2a3f
000000e0: 8006 95be 9816 dbbd bc44 58be f38e 75be
000000f0: e4e0 fa3e 792c c8be 47ad ce3d 4e2c 873f
00000100: 104e bd3f f101 11be b7c1 1dba 8d80 c73e
00000110: f7e8 bd3e ca58 e13d 04d0 25bd 4488 933f
00000120: bf74 e6bd 1a95 dc3f f48d 42bd 1df2 37be
00000130: a8de c13e dc36 23be 1fbc 00be abc0 c23f
00000140: cc82 e1bc a526 22be 11e8 6c3f ae64 2ebc
00000150: 13ba 98be 267b 283f 7280 a2bd a51c 7cbe
00000160: a0a5 c53f 2ad5 1f3f ecb8 de3e 268d 993f
00000170: f7c8 9ebd d4fc 9d3e 5a50 a83d 7607 523d
00000180: ee5e de3f dab0 1bbe 1dfd 3bbe 00d1 bfbe
00000190: b378 953f 8c21 26be f952 4b3f 61e2 6fbe
000001a0: 08ea 2dbd bf20 9c3f 221f 9d3e badd b4bd
000001b0: 5124 1dbe f24a 55be 8b96 4f3e 8345 ff3f
000001c0: 2e88 78be e39a 43be bc6c 8dbe 8a33 123f
000001d0: 22d4 37be d03a 963e 48f9 343d 0695 34be
000001e0: b173 9b3f b44d 8f3e f9b7 153f 4b75 203f
000001f0: 0b54 d33f ecab a53e 6f67 e93d 0156 f8bd
0.39701238 0.9583188 0.9100968 1.4192387 -0.17198317 0.026031675 0.358873 0.12123797
1.7661033 0.32574522 0.65295976 0.1928977 -0.04480169 0.33261493 -0.053667933 0.27314287
0.49993727 1.219669 1.4726406 0.374024 0.27715033 0.13389459 0.81287956 -0.110108756
-0.035574373 0.1125848 -0.070083976 0.91704285 -0.28143317 -0.3133836 0.17473003 -0.15698816
0.17431258 -0.07990613 -0.19710132 0.06621541 -0.36406234 0.932598 0.038523454 0.9204984
-0.16926911 -0.22877674 -0.0013805246 -0.07862526 0.30346873 -0.097898275 -0.23494714 0.21744236
0.85249084 0.009353094 0.34696472 1.0562146 -0.12684268 1.3229833 -0.086551785 0.66772914
-0.29106522 -0.10697669 -0.2111997 -0.23980312 0.48999703 -0.3909643 0.10091644 1.0560396
1.4789448 -0.14160897 -0.00060179405 0.38965264 0.370918 0.11003263 -0.040481582 1.152596
-0.11252736 1.7233002 -0.04749866 -0.17963453 0.37865186 -0.15938896 -0.12571763 1.5215048
-0.02752819 -0.15835054 0.92541605 -0.010644121 -0.29829463 0.6581291 -0.07934655 -0.24620302
1.544117 0.6243464 0.4350046 1.19962 -0.07753175 0.30856955 0.08218451 0.051276647
1.737272 -0.15204182 -0.18358274 -0.37464142 1.167746 -0.16223735 0.7942348 -0.234262
-0.042459518 1.2197493 0.30687815 -0.088313535 -0.15345885 -0.2082937 0.20272271 1.9943088
-0.24270698 -0.19102053 -0.2762202 0.5710989 -0.17952016 0.29341745 0.044183046 -0.17634973
1.2144681 0.2798897 0.58483845 0.62678975 1.6510023 0.32357728 0.113966815 -0.12125779

model.2.weight f4 [128]
00000000: d1f9 693f b764 813f 415c 753f 732b 773f
00000010: f3fa 183f 562c 973f 3c52 863f 4c85 443f
00000020: 2a1c a23f 73ef 693f d4a0 8f3f f321 833f
00000030: b475 133f d94f 8d3f 2ac3 243f a3bc 0b3f
00000040: 8941 413f 4e94 6c3f bedf 753f cf7d 2b3f
00000050: 0367 3b3f 80be 2c3f 17c4 8b3f 5ad0 8c3f
00000060: ad5f 763f 6123 543f 91cb 6b3f 5ff8 b93f
00000070: 3a50 4e3f eac1 923f 9541 813f e53e 953f
00000080: c6fe 8f3f e6e2 ee3e db18 583f 6d59 683f
00000090: 4184 a83f b59f 823f a621 663f 11f5 6e3f
000000a0: eef5 a43f 010b 643f 0074 933f b9a5 633f
000000b0: b2a0 6e3f 8aca 5d3f c949 a53f 874a 733f
000000c0: 46f9 8c3f 3817 2a3f f8e6 4c3f 8b40 683f
000000d0: 9290 613f cb05 5b3f 96fb 423f 9284 fd3e
000000e0: 54da 8f3f 4e05 693f 5578 6e3f 29c0 5a3f
000000f0: 6c00 453f 7379 8d3f 8133 5b3f 7bb4 8c3f
00000100: 67ab c23f b261 4c3f 8581 973f 5647 703f
00000110: c724 8c3f 5fcd 693f 3c10 653f eca7 7b3f
00000120: 28bb 1c3f fb1d 8f3f 22de 183f 2fc9 993f
00000130: c69f 533f 4860 803f 22d2 783f 2551 873f
00000140: 238e 4e3f 8ee0 4d3f 2222 7e3f 6bef 783f
00000150: e213 a13f c1fd 893f 11dd 283f e3bb 333f
00000160: 99f4 863f 9ff6 743f 9433 7b3f d76b 813f
00000170: ae3c 2f3f e318 3c3f 64a8 1c3f 160e 0a3f
00000180: c1b3 6c3f 26e7 393f f1fb 713f ba17 183f
00000190: 0dca 713f 9e59 873f 77ed 833f bae2 863f
000001a0: b621 553f 6444 803f 6ab2 1a3f a822 963f
000001b0: 2abb 823f 018b 683f a0b8 ac3f ef3d a83f
000001c0: 07a9 823f e35d 373f c7e1 583f b959 4f3f
000001d0: bfdf a73f d519 713f c94f 303f e091 6a3f
000001e0: 970c 863f e382 913f df04 5c3f a697 753f
000001f0: a9b6 843f 62d6 453f 93c4 2c3f 1707 8b3f
0.91396815 1.0108861 0.95843893 0.96550673 0.5975792 1.1810405 1.0493846 0.76765895
1.2664845 0.91380996 1.1220956 1.0244735 0.57601476 1.1039993 0.64360297 0.5458471
0.75490624 0.92413795 0.9604453 0.66988844 0.7320406 0.6747818 1.0919217 1.1001084
0.9623974 0.82866484 0.9210749 1.4528922 0.80591166 1.1465428 1.0098139 1.1659819
1.1249626 0.46657485 0.84412926 0.9076145 1.3165361 1.0204989 0.89895093 0.9334269
1.2887552 0.8907929 1.1519775 0.8892475 0.9321395 0.86637175 1.2913142 0.95035595
1.1013572 0.6644168 0.8003993 0.90723485 0.8811122 0.85555714 0.7616514 0.49515206
1.1238503 0.9102372 0.9315236 0.85449463 0.7695377 1.1052688 0.85625464 1.0992578
1.5208558 0.7983657 1.1836401 0.9385885 1.0948724 0.91328996 0.89477897 0.98303103
0.6122308 1.1181024 0.5971395 1.2014521 0.8266567 1.0029383 0.9719564 1.0571638
0.80685633 0.8042077 0.9927083 0.9724032 1.2584193 1.0780565 0.6596232 0.7020857
1.0543395 0.95688814 0.98125577 1.0111035 0.68451965 0.73475474 0.61194444 0.53927743
0.9246178 0.7261833 0.9452506 0.59411204 0.9444893 1.0574224 1.0306844 1.0537941
0.83254564 1.0020871 0.6042849 1.1729326 1.0213368 0.90837103 1.3493843 1.3143901
1.0207833 0.71627635 0.8471951 0.8099628 1.3115157 0.9418004 0.6887174 0.9162884
1.0472592 1.1368068 0.8594493 0.9593452 1.0368243 0.7728025 0.6748745 1.0861539

model.2.bias f4 [128]
00000000: 0470 ac3e aba8 89be b3fb 8f3e 6675 df3e
00000010: b578 d1be 7632 b03e 0823 263e 1eb7 7bbe
00000020: bce4 133f 4884 22bd 8f42 cd3d 97c2 1d3e
00000030: 41dd 393f 184e 3bbd 858b 913e 6bd6 4f3f
00000040: 470c b4be 9097 173f 4b43 bf3e 8110 1e3e
00000050: 06b8 c7bd 1341 4e3e 236f 2e3f 534a 053e
00000060: 881e 853e 6ea2 b33e a168 813e bf00 2a3f
00000070: f91f 1d3e f08d 6cbd 2433 4e3e 7137 853e
00000080: da54 863e 1743 1abe d71d dc3c 9686 253e
00000090: 487a b9bc 9f92 db3e ebe0 ba3e b9ca b93e
000000a0: a23b 8d3e aeb5 333f deab 7e3e 1eab 2e3f
000000b0: 5256 f93e e9a3 b13d 54d2 9d3e 6e4a 3d3e
000000c0: af34 4b3e a2dc 11bf b1f7 77be 795b 5d3e
000000d0: 237d a43e 64ee ef3e c571 39bf 1e9c a73e
000000e0: 2fab 5e3e 8db1 efbe 8e1d 4a3d 5aaa de3d
000000f0: 7d9d 33bd 5bc4 333e f46e af3e 994f ae3e
00000100: 372e e63e c7e3 27be ce5f 633e e805 273f
00000110: 5fef 533e 521d 8d3d b3c2 19be 61b4 003e
00000120: 06a6 0e3e 0a0b 3f3f 5d59 f53e 0283 403f
00000130: 3435 05bc 90a5 c53d e418 a53e 9ee0 083f
00000140: 0701 bdbe 6058 d7bd 54d6 a73e c010 053e
00000150: 684d 643e 0c91 bb3e 88f1 bebd 94eb 0a3f
00000160: 5ef7 b13e 8d4c 023f fd09 e3be 4ed4 933d
00000170: dd0f 843d c00b 4bbe ae73 ddbe 1482 04bf
00000180: e0c3 c93e 4911 333e 2efd 013e 803b 1d3d
00000190: 010e 863e 9600 573e 89d4 13be e799 263e
000001a0: cb1c 3dbd 02ef dfbd f6ad da3e 58b7 433d
000001b0: c7f4 51bd 5a91 8d3e d7d1 a93e 53dc dd3e
000001c0: 2c2d 263f 07fb 1d3f 94e0 993e 42ba 093d
000001d0: f4af 643d 3abf f43c defd 8f3e 20b7 c0be
000001e0: c80b 1c3e 8f7f 313e f4a5 cb3e 6fe9 6b3e
000001f0: c1a7 173f 3d88 563e c2b0 4ebf 8e7e 9d3d
0.3367921 -0.26886496 0.2812172 0.43644255 -0.40912405 0.344135 0.16224301 -0.24581572
0.57770896 -0.039676934 0.10022461 0.15406261 0.7260323 -0.045728773 0.28426757 0.8118655
-0.35165617 0.5921564 0.37356028 0.15435983 -0.097518966 0.20142011 0.6813833 0.13016634
0.25999856 0.35084862 0.25275138 0.6640739 0.15344228 -0.05775255 0.20136696 0.2601886
0.26236612 -0.15064655 0.026869697 0.16164622 -0.022641316 0.428853 0.36499724 0.36287478
0.2758456 0.70199096 0.2487025 0.68229854 0.4869867 0.086738415 0.3082453 0.18485424
0.19844316 -0.56977284 -0.2421558 0.21616925 0.32126722 0.46861565 -0.72439224 0.32736295
0.21744989 -0.46815148 0.04934459 0.10872336 -0.043851364 0.17555372 0.34264338 0.34045103
0.44957134 -0.16395484 0.22204515 0.6524339 0.20696782 0.06890358 -0.15015678 0.12568809
0.1393052 0.7462622 0.4791974 0.751999 -0.00813036 0.09650719 0.32245553 0.5346774
-0.36914846 -0.10514903 0.32780707 0.12994671 0.22295153 0.366341 -0.09323412 0.54265714
0.3475904 0.5089806 -0.44343558 0.07218228 0.06448338 -0.19828701 -0.4325232 -0.51760983
0.39407253 0.17487063 0.12694237 0.03838682 0.2618256 0.20996317 -0.14436544 0.16269647
-0.046170037 -0.10934259 0.42710847 0.047782272 -0.05125883 0.27649957 0.33167908 0.43332157
0.64912677 0.6171116 0.30054152 0.033624895 0.055831864 0.02987634 0.28123373 -0.37639713
0.15238869 0.17333816 0.3977505 0.23038267 0.5924035 0.20950408 -0.8073846 0.07690154

model.2.running_mean f4 [128]
00000000: a6a5 3343 0ed0 2940 4b79 da3f 61ce 3e40
00000010: c664 7b3e de8b e33d e7fc 2e3f aca4 8143
00000020: 329a 0740 90f1 5d40 eb2d 1440 c641 803d
00000030: 3123 0e3e 87f3 fa42 ae3f 273b f258 3f40
00000040: db92 0244 5c95 a940 9975 0a40 0a79 2640
00000050: 49d3 af3f fb43 8243 c66d 963f 03ab 243f
00000060: 09f6 843c 13b7 2a3d f506 903c 3960 0b40
00000070: a2b8 7343 ac44 563a dd2e 7c43 05e5 9b44
00000080: 9f5c 6f3e 49cb 703f 8258 6b0c e82e 063e
00000090: bd2b 793e a2a6 1c3f 0c03 603e 9c61 3540
000000a0: ca47 fb3e 0400 0000 659c ee43 0400 0000
000000b0: 6095 bd3e 4cb1 3344 7bdb a244 b3c0 a33e
000000c0: 0b73 843f c4f7 8343 d641 c443 8271 6440
000000d0: c026 183e 7cf3 5c40 0400 0000 ab74 8140
000000e0: 21e3 9544 695e 8633 39c5 5d43 591b 1442
000000f0: 328c 9240 5108 8944 b442 0b3f 5146 9f3f
00000100: 1be2 2f40 8c68 843e 3d77 5742 3ca4 823f
00000110: 9aa5 a743 1d29 a43f b76f a03b e269 5f40
00000120: f125 1e3d 8878 4e3f f7cb 3d43 ae4c 9939
00000130: 0bee bd40 c26b db44 2134 013f ec8a 2040
00000140: 6bd3 e743 c364 6f44 8bef 0540 9a87 f63e
00000150: 5335 a044 5960 7343 017e 1742 0400 0000
00000160: 1a27 0e40 db0b bc3f abe7 2840 6c55 4240
00000170: 9d32 eb43 7ea6 ab40 c55b f641 bef6 d441
00000180: 1255 6740 fa45 8e3d 35dc 383d 3d75 9b3c
00000190: 12f9 4040 c6a6 f03d 1573 1d40 56a5 8d44
000001a0: feba 4442 6d5c 4740 4a4e de3f 5ef3 533d
000001b0: 0b1e 363c ea4c b33d f1d2 353f bc06 3a40
000001c0: 0400 0000 e5d0 863c 0400 0000 bea1 7540
000001d0: e471 8322 5b2c ca42 da93 283e 2c6a 373f
000001e0: e2e8 1140 9293 9e42 1f9b 1140 7ce1 1940
000001f0: 352d 2b40 d12e df3f 71a2 c841 5073 9244
179.64706 2.6533237 1.7068266 2.9813464 0.24550161 0.11110662 0.6835465 259.2865
2.1187863 3.4678688 2.3153026 0.06262545 0.13880612 125.47564 0.0025520134 2.9898038
522.2946 5.2994823 2.1634276 2.6011376 1.3736354 260.5311 1.175225 0.64323443
0.0162306 0.0416785 0.017581442 2.177748 243.72122 0.0008173685 252.18306 1247.1569
0.23375176 0.9406019 1.8130376e-31 0.13103831 0.24333091 0.6119176 0.21876162 2.8340826
0.49078208 6e-45 477.22183 6e-45 0.37028027 718.77026 1302.8588 0.31982955
1.0347608 263.93567 392.51434 3.569428 0.14858532 3.452361 6e-45 4.0454917
1199.0978 6.2570344e-08 221.7704 37.026707 4.5796137 1096.2599 0.54398656 1.2443334
2.7481754 0.25861013 53.866444 1.020637 335.29376 1.2825047 0.00489613 3.4908376
0.038610402 0.80652666 189.79674 0.00029239565 5.935308 1755.3674 0.5047017 2.508479
463.6517 957.5744 2.0927455 0.4815033 1281.6664 243.37636 37.87305 6e-45
2.2211366 1.4691118 2.63914 3.0364637 470.39542 5.3640738 30.79481 26.62048
3.6145673 0.06946941 0.04513188 0.018976802 3.015202 0.117505595 2.460149 1133.1667
49.18261 3.1150162 1.7367642 0.051745765 0.011115561 0.087549046 0.71024996 2.906661
6e-45 0.01645703 6e-45 3.837997 3.5628208e-18 101.08663 0.16462651 0.7164638
2.279839 79.28822 2.2750928 2.4043875 2.6746342 1.7436162 25.079317 1171.6035

model.2.running_var f4 [128]
00000000: 2c25 7249 c2b4 0640 8753 8c3f 46e8 9c3f
00000010: 9fb5 6e3e 0e58 d93d 9aa7 c23f 5dc2 fa49
00000020: 6643 a03f 2c0f 2d40 1f3b de3f 800d c03d
00000030: 099a 653f 20ee dd48 9b8b 223b 26c2 0c40
00000040: f9db fe4a 5120 6340 a8e2 393f fc13 4d40
00000050: 40ef 0840 25ad ff49 1242 4b3f a224 183f
00000060: 8f83 8c3c b89c 203d 1e94 643c 1849 be3f
00000070: dad5 e349 c9fe 933a 75df ed49 28a6 3a4c
00000080: 3b11 9a3e 8c9d 883f b981 ac0c e131 3e3e
00000090: 807a 7a3e 7708 e43e 6a41 ac3e ac9f 0040
000000a0: 16fe b33e 0400 0000 7c43 da4a 0400 0000
000000b0: 37c9 8d3f f902 784b 5eb2 4b4c 1b34 ad3e
000000c0: e1f9 ed3e 0051 034a 9b58 924a f946 0740
000000d0: 2377 993e ec87 0140 0400 0000 87d1 3240
000000e0: 308c 2c4c 4845 8d32 baef bc49 430f 2947
000000f0: 7d3c 4e40 0938 104c 7964 0c3f 042b 7b3f
00000100: 26d0 b03f 7742 ee3e 2a39 ad47 7264 5e3f
00000110: eb88 564a 5ae4 a63f a146 ca3b fc4f 2540
00000120: 65da 233d 5c73 403f c882 8949 55d2 b339
00000130: 64dd b340 44e1 b84c 516a 113f 2467 8f3f
00000140: f460 cc4a 1e15 db4b 9fc7 a43f 44f5 223f
00000150: 9223 454c 18da dd49 fad6 1947 0400 0000
00000160: dfb4 853f 212e a33f ea95 f73f 5abb d83f
00000170: 8a5b d44a 4712 cf40 592a e746 728e ac46
00000180: 2a2a 0e40 4d8b b13f ed6b 323d c1f7 153e
00000190: a6a4 0840 6356 013e cbb7 e93f af18 1a4c
000001a0: 7af1 9147 e152 1e40 a8c7 f93f 756e 393d
000001b0: dcac c63b 763f 993d 648e 1a3f 3b2b af3f
000001c0: 0400 0000 bdc9 bd3d 0400 0000 05ce 3340
000001d0: c8d4 8b21 d003 8f48 de74 2f3e 2caf 533f
000001e0: e887 8b3f b45a 3548 7c4c b53f 69bc d63f
000001f0: e613 b93f c3fc a33f e78e 9046 e2b8 244c
991826.75 2.1047826 1.096299 1.2258384 0.2331147 0.10612498 1.5207398 2.0542196e+06
1.2520568 2.704051 1.7361792 0.09377575 0.89688164 454513.0 0.002480245 2.1993499
8.3512285e+06 3.5488474 0.72611475 3.2043447 2.1396027 2.0945006e+06 0.7939769 0.594309
0.017152576 0.03921196 0.0139513295 1.4866056 1.8664272e+06 0.0011291142 1.9486546e+06 4.892893e+07
0.3009127 1.067308 2.657887e-31 0.18573715 0.24460793 0.44537708 0.33643657 2.0097456
0.3515479 6e-45 7.152062e+06 6e-45 1.1077031 1.6253689e+07 5.339788e+07 0.33828816
0.46479705 2.151488e+06 4.7954695e+06 2.1137068 0.29973707 2.023921 6e-45 2.7940385
4.523232e+07 1.6446066e-08 1.5477672e+06 43279.26 3.222442 3.7806116e+07 0.5484081 0.9811251
1.3813522 0.46535084 88690.33 0.8687202 3.5149388e+06 1.3038437 0.0061729704 2.5830069
0.0400032 0.75176024 1.126489e+06 0.0003429825 5.620775 9.693034e+07 0.5680285 1.1203351
6.697082e+06 2.871558e+07 1.287342 0.63655496 5.167879e+07 1.817411e+06 39382.977 6e-45
1.0445822 1.2748452 1.9342625 1.6932175 6.958533e+06 6.470981 29589.174 22087.223
2.2213235 1.3870636 0.043559957 0.14645292 2.1350493 0.1263061 1.8259214 4.0395452e+07
74722.95 2.4738085 1.9514055 0.045271356 0.006063087 0.07482807 0.6037352 1.3685068
6e-45 0.09266994 6e-45 2.8094494 9.475329e-19 292894.5 0.17134425 0.82689166
1.090085 185706.81 1.4163966 1.6776248 1.4459198 1.2811512 18503.451 4.3180936e+07

model.4.weight f4 [64, 128]
00000000: 2770 cf3d 2bce 62be 951f bebd 994e da3d
00000010: 2924 a2bd f662 22bc 647f ccbc 9d23 b9be
00000020: 4a91 13bd 0ea5 6c3d 59d2 84be 7a7f 533e
00000030: ee5d 28be ea1d 09bf af74 c23e 25cc cfbe
00000040: 1599 183d 92ce c0be 5a97 6ebe 5b95 d63d
00000050: 71fe b33d 3dd0 7e3d 4d2a a9bd c0c6 56be
00000060: 15a7 773e a64b ce3d adb1 2e3d 25cf b03e
00000070: fb81 b43e 3d0d c9be df59 81bd 6e9a ee3d
00000080: 794a 6fbc 2fcd c43d efb4 18bc fefd 4f3e
00000090: 5d8f 8b3e 17da eabe 0093 44be ca98 633d
000000a0: 563e 453c 0fe8 0a3f 3a30 7f3e 80f9 05bd
000000b0: 3e0e 5a3e 707c 2b3d 50e9 9ebd 6477 4bbe
000000c0: 1796 e63d e030 2f3e 8c60 d43d 6b4c 23bf
000000d0: 6e11 80be 0414 a6be 5724 c5bc 22fb a6be
000000e0: 62b5 88bd d8ef 843b 84d5 81bc d2f4 7d3e
000000f0: 9990 07be dcf9 ed3d 4ece 4fbe 5289 3fbd
00000100: 15ed 1d3e 2b63 f7bc 38ce 863e c098 14bd
00000110: a131 603d 1754 acbd 6d74 dabd 7afc 34bf
00000120: 86fd 8a3e 6bce 9cbe 1096 c63d e396 323e
00000130: 1946 8dbe 495f 503d 3f1b 7cbe 8e25 b0bd
00000140: a5bf c1bb 2312 493e 3efc f7bd 66f4 973e
00000150: 4c38 213e 505d da3d babe 80be 829f 113d
00000160: 96b2 f3be f00e 37be 06a7 b1bd 8847 bebd
00000170: 8257 75bc 9ac9 c1be 4251 3b3d d60d 843d
00000180: 311d 5dbe 44bd 5c3d fcaa 58bd 80ba 4b3d
00000190: 6604 2a3c dc75 d4be 1fc2 b73d 2fe9 cc3d
000001a0: ee31 84be 6a9a a1be 0752 60be 6777 91be
000001b0: e415 20be 6df7 f73c b269 e6be b712 fdbd
000001c0: ad94 3fbb 2020 203e 2fa3 ecbd b3b2 98be
000001d0: 5230 9b3e cb09 d1bd 3a82 81bc b580 16bf
000001e0: e395 47bd 26e5 ba3d 4106 87be f676 65be
000001f0: 513b c3be 0a38 673e 86d7 533e 2676 bd3d
00000200: fde1 7b3c 5f26 59bd 5492 12be 5393 8fbe
00000210: e51b c8bd 6f86 a6be 0bf1 8cbe 3ddc 123e
00000220: 8871 24bf 258c 2bbe 7b2e 653c 84a6 8ebe
00000230: fdc9 acbe 64f6 763d 9be4 74be 7ca6 e8be
00000240: aac5 313e 7bf5 a6be 4a08 b4bd 8f3c 56be
00000250: dcd3 7abe ef35 193e 99cc 53be 93f3 52be
00000260: 4a11 863d 3337 b0be 7157 06be 1beb b0be
00000270: 284e bcbd 94fb 1bbd 8328 9fbc b55c 003d
00000280: 2973 7fbe c852 92be 9fe7 873d 7525 f2be
00000290: 4106 22be 8820 87be 8234 193e b7f4 80be
000002a0: 5556 1bbe 1ca8 e93c 7cc9 243e 814b 2bbb
000002b0: 3288 bfbe 32d3 51be ade4 a0bd 3a26 5a3d
000002c0: c560 efbd 191b 8f3c 4c2f 393e 76ff 83be
000002d0: 6fa5 02be 481e 8cbe 293c ac3e f460 a3be
000002e0: 9e91 02bd 7d8e 963e 41f4 14bd d929 18be
000002f0: 981a 6ebc 74aa 1f3e 0736 33be 9a28 4bbd
00000300: 568e 50be 8163 9ebe fb8c e1bd f147 91be
00000310: db2f b7bd f679 c4be 7d3a 9c3e 406f 4dbe
00000320: 99ea 2f3e 67c2 86bc 3227 cf3c c981 d4be
00000330: 18fc 66be 0135 d9bc 71c7 5ebd 4c7c 33bd
00000340: 1fb1 573e 6fde 2a3e 9ab8 86be c61b 273d
00000350: 4611 d3bd 6790 4abe fca1 dfbd a03a eabe
00000360: 7142 87be ded6 f5bd 4e3b 933e 1a55 febd
00000370: 7f1a 5e3d cb29 71be 7de3 0e3e c4b9 9ebc
00000380: 46f3 a0be 4cd9 87bd 7b65 cbbd 6d9f b6bd
00000390: bfb3 20be d543 18ba 242f 30be 200d 853d
000003a0: e3d0 2ebe 5f9d 13be 6937 87be e0dc d93c
000003b0: 5034 acbe d623 75be 91b2 80bd e830 b4be
000003c0: 75e6 f7be c883 e0be 4d6c c6be 9575 3dbb
000003d0: 8c4e 9cbd bf06 00be 72eb 41be 1558 a3bd
000003e0: 8978 05bf 38c8 ab3e 12c0 0c3d 6cea 82be
000003f0: 844f 92be 40e1 7dbd 472e 833e fe94 d4bd
0.10128813 -0.2214896 -0.092833675 0.106595226 -0.07917053 -0.009911289 -0.024963088 -0.36159983
-0.03602723 0.057774596 -0.25941733 0.20654097 -0.16442081 -0.5356127 0.37979648 -0.40585437
0.037255365 -0.376576 -0.23299924 0.10477706 0.08788765 0.06221031 -0.08260021 -0.20974255
0.2418483 0.100730225 0.042649914 0.3453304 0.35255417 -0.39267913 -0.0631597 0.11650549
-0.014605158 0.09609448 -0.009320482 0.20311734 0.27257815 -0.45869514 -0.19196701 0.055565633
0.012038788 0.54260343 0.2492074 -0.032708645 0.21294495 0.04186672 -0.077593446 -0.19869763
0.11259096 0.17108488 0.10369977 -0.6378848 -0.25013298 -0.32437146 -0.02406518 -0.32613474
-0.06675221 0.004056912 -0.015848882 0.24800423 -0.13238753 0.116199225 -0.20293543 -0.04676182
0.15422471 -0.030198654 0.26329207 -0.036278486 0.05473483 -0.08414476 -0.10666738 -0.7069775
0.27146548 -0.30626234 0.09696591 0.17440371 -0.27592543 0.05087212 -0.24619769 -0.08600913
-0.0059127384 0.19635825 -0.12108658 0.2967865 0.15744132 0.10662329 -0.25145513 0.03555251
-0.47597188 -0.17876792 -0.08674435 -0.09290987 -0.014974477 -0.37849122 0.04573179 0.064479515
-0.21593167 0.053891435 -0.05289744 0.049738407 0.010377025 -0.4149617 0.089725725 0.10005414
-0.25819343 -0.3156312 -0.21906291 -0.2841141 -0.1563335 0.030269349 -0.45002514 -0.12357085
-0.0029232905 0.15637255 -0.11554562 -0.29823837 0.30310303 -0.10206946 -0.015809167 -0.5879014
-0.048726927 0.09125738 -0.2637196 -0.22408661 -0.38131192 0.22579971 0.20687684 0.09251051
0.015373704 -0.05301511 -0.14313632 -0.28042087 -0.097709455 -0.3252444 -0.2752765 0.14341827
-0.64235735 -0.1675268 0.013988133 -0.27861416 -0.33747855 0.06029357 -0.23915331 -0.45439517
0.17360559 -0.32609162 -0.087906435 -0.20921539 -0.2449488 0.1496198 -0.20683517 -0.20600729
0.065462664 -0.34417114 -0.13119294 -0.3455437 -0.091945946 -0.03808172 -0.019428497 0.031338412
-0.24946274 -0.28578782 0.06635975 -0.47294202 -0.15822698 -0.26392007 0.14961436 -0.25186703
-0.15169652 0.028522544 0.16092485 -0.0026137533 -0.37408596 -0.20490721 -0.078561164 0.053259112
-0.11688379 0.017468976 0.18084449 -0.2578084 -0.1275842 -0.27366853 0.3363965 -0.31909907
-0.031877153 0.29405585 -0.03636575 -0.14859714 -0.014532708 0.15592366 -0.17501079 -0.049599268
-0.20366797 -0.3093529 -0.11013218 -0.283752 -0.089446746 -0.383743 0.30513373 -0.2006197
0.17179336 -0.01645012 0.025287244 -0.41505268 -0.22557104 -0.026514532 -0.05438942 -0.04381971
0.2106366 0.16686414 -0.26312715 0.04079797 -0.10306029 -0.19781648 -0.10919568 -0.45747852
-0.26417878 -0.12003873 0.28756183 -0.124185756 0.054224487 -0.23551099 0.13953967 -0.01937569
-0.31435603 -0.06633243 -0.09931465 -0.08917127 -0.15693568 -0.00058084476 -0.17205483 0.06496644
-0.17071871 -0.14415501 -0.26409462 0.02659458 -0.3363366 -0.23939452 -0.06284059 -0.35193563
-0.48418012 -0.4385054 -0.38754502 -0.0028909196 -0.07632169 -0.12502573 -0.18937472 -0.07975785
-0.5213705 0.33551192 0.03436286 -0.25569475 -0.2857629 -0.061982393 0.25621244 -0.103799805

model.4.bias f4 [64]
00000000: 98a9 f73d 8508 dbbe 3d5f 163e 5c01 46bd
00000010: 0359 dfbe d99e 303e c02a 9d3f 5c27 413f
00000020: 1d7e a43d 21cf 213f c04f d03c eee0 2fbf
00000030: e8d0 4f3e 449c e3bc 35ea aa3c b9af 0abe
00000040: 71d4 e73e e07b 153f 88ae 083f 2fbc 183f
00000050: 81d2 fe3e 05db 4fbf 2a31 d93e 7d42 94bd
00000060: 35c3 953e 775a 95be 31cd fd3d ff8b 81be
00000070: 4a0f 1c3f ad49 4cbe 2386 163f 8964 033f
00000080: 0275 86bd 54e8 c73e ddba 393e 46bb 0abf
00000090: b5e5 b5be 01b5 553f 668b eb3e 0d05 17bf
000000a0: b1b1 3cbe 0d4d d03e e5cf 1d3f 7bed 623e
000000b0: d260 02bf 5f73 913e 2b25 8e3e 25bc 0e3f
000000c0: e6fc dabe 8ce4 253f 131d 6d3d 6794 e73e
000000d0: 2665 e4be 0148 053f d3e9 f73e 6cb9 af3d
000000e0: 45b5 293f 4c59 783e 93ed d83e 1b8d 0cbe
000000f0: e620 9e3e de26 d6bd e142 b83c fa82 313e
0.12092894 -0.42779937 0.14684768 -0.04834114 -0.43622598 0.17248096 1.2278671 0.7545068
0.08031867 0.6320668 0.025428653 -0.6870259 0.20294535 -0.027784474 0.020863632 -0.13543595
0.45279267 0.58392143 0.53391314 0.59662145 0.49769977 -0.8119357 0.42420322 -0.07239244
0.29250494 -0.29170582 0.12392653 -0.2530212 0.6096083 -0.1994998 0.58798426 0.5132528
-0.06565286 0.3904444 0.18137689 -0.54192007 -0.35526815 0.83479315 0.4600479 -0.5899208
-0.18427159 0.40683785 0.61645347 0.22160904 -0.50928986 0.28408334 0.27762732 0.55755836
-0.4277107 0.6480186 0.057889055 0.4523041 -0.4460842 0.52062994 0.4842058 0.08580288
0.6629222 0.24252814 0.42368755 -0.13725702 0.30884475 -0.10456632 0.022492828 0.1733512

model.6.weight f4 [64]
00000000: 093b b93e 21f1 283f 1027 ad3e 729b 9b3e
00000010: e642 883e 1208 b03e 044e ae3e 7ef3 d93e
00000020: b671 6d3e 63bb c33e 8b65 d93e 2791 f33e
00000030: d934 d93e a668 f33e 835d c33e 1b9b f33e
00000040: 4215 b83e a37d 993e d3e4 b13e b86e b43e
00000050: cf55 603e bfd7 363f 3ca6 643e a02c cd3e
00000060: 0adb a43e e154 033f 1eb2 8a3e b7bc cf3e
00000070: 2049 a03e 6929 ac3e a715 8b3e ffd1 cc3e
00000080: 11d8 fc3e bc04 603e beed ae3e f1a2 313f
00000090: 5469 0c3f 0e28 c53e 1fbe ab3e 6e3e 0b3f
000000a0: e688 e23e 4b74 bb3e f47c b93e 5ef4 a23e
000000b0: dbd1 e63e 4b04 b23e f00e 973e 2cb7 b03e
000000c0: e7d7 043f 3485 a63e 5ee6 843e 3ca7 bc3e
000000d0: 1bb4 0c3f 71fe 9e3e b6a2 463e 0f1e a23e
000000e0: cdd4 9d3e 8c87 2a3e 9e3e a03e 915c da3e
000000f0: 0b2b 793e f472 ad3e a529 d23e 77f9 ad3e
0.36177853 0.65992934 0.33818865 0.30392033 0.2661354 0.34381157 0.34043896 0.42568582
0.23187909 0.38228902 0.42460284 0.4757168 0.42423132 0.47540778 0.3815728 0.47579274
0.35953718 0.29978666 0.34744892 0.35240722 0.21907733 0.7142295 0.22329038 0.4007311
0.32198364 0.5130139 0.27089018 0.40573665 0.3130579 0.33625343 0.27164957 0.40003964
0.49383596 0.21876806 0.34165758 0.69389254 0.5484822 0.38507122 0.33543488 0.54392135
0.4424507 0.36612162 0.36228144 0.31827062 0.45081982 0.347689 0.29503584 0.3451475
0.5189194 0.325235 0.25957006 0.3684634 0.5496232 0.31053498 0.19398007 0.31663558
0.30826417 0.1665327 0.31297773 0.42648748 0.24332826 0.33876765 0.41047397 0.3397939

model.6.bias f4 [64]
00000000: 6a29 d93c 0f9e 203d d245 143e 97e3 063e
00000010: 34c8 8a3d 4c6d d8bc d9e1 443e 6b10 cbbd
00000020: aa67 a5bd bb2a b73d e466 aa3c 5678 b2b1
00000030: 55e7 57bb 3410 cc3c 2f13 563e 5714 27bc
00000040: bc97 013e ace3 e9bc b85e 103e dab7 aa3d
00000050: 719f ed3d c476 d13d 8817 d73d 19d3 1b3e
00000060: 87ec 3f3e 9c34 133c f641 143d b1dd 743d
00000070: 5951 3a3e 130f 1b3e 04eb adbd da47 093e
00000080: 0885 c23d 8cf2 093d 0e5a e53d f787 633b
00000090: 8049 763d 2b5f 483d 085b efbd 56b2 223d
000000a0: 6250 81bc 4efc dcbd db8b 323e 9e94 c63d
000000b0: 8a55 a03d e634 01be ef29 c2bd 9569 c3bd
000000c0: 57bd 793d 6b68 3fbd 209d bebd fe76 0f3e
000000d0: 430e 543d 8b5e e93d 8282 c03d e917 b53c
000000e0: 9509 3e3e efc5 d4bc f6fd 19be 8742 2d3e
000000f0: 4a62 78bd d1fe 293d 04a5 ca3d 8827 1d3e
0.026509006 0.039213236 0.1447976 0.13172756 0.06776467 -0.026419304 0.19226779 -0.09915241
-0.08076413 0.08943697 0.020801015 -5.1941624e-09 -0.003294428 0.02491007 0.20905755 -0.0101977205
0.12655538 -0.028550945 0.14098632 0.08335848 0.11602677 0.10227731 0.10502535 0.15217246
0.18742572 0.008984711 0.036195718 0.059781734 0.18195094 0.15142469 -0.08492091 0.13406315
0.0949803 0.033678576 0.11198817 0.0034718493 0.06012869 0.048918884 -0.11687285 0.039720856
-0.0157854 -0.10790311 0.17436163 0.09696315 0.07828815 -0.12617835 -0.094806544 -0.095416225
0.060971584 -0.04673044 -0.09307313 0.14010236 0.051771414 0.11394986 0.093998924 0.022106128
0.18558343 -0.025973288 -0.15038285 0.1691991 -0.06064061 0.041502777 0.098947555 0.15347111

model.6.running_mean f4 [64]
00000000: 3aea 0240 14a6 2f3f 734b 6340 a50d c73f
00000010: 10e5 8a3f d4d2 cd3f 6bd7 8740 3031 5340
00000020: be55 2740 f27f 5740 b5d4 823f 0400 0000
00000030: 686d a13f 7306 ac3f 7d7c 0f40 f77a 793f
00000040: 90b3 8840 de76 9040 0e32 0e40 433b e03f
00000050: a5ad 9840 035b d63e deb6 8f40 a673 8a3f
00000060: faf5 df3f 09fc 6b3f f4b5 0e40 f317 803f
00000070: beac 8b40 d813 523f 9037 6840 db95 8640
00000080: 98d5 a73f 45f8 0640 13d7 5140 b751 a33a
00000090: f391 7c3f 8bd2 fb3f 95bf 7740 134f c03e
000000a0: ed37 993f abe0 4540 a30b 6540 e7f6 5d40
000000b0: 5542 293f ce87 7040 6056 2a40 75cb 4840
000000c0: 4c09 0c3f 3640 3e40 af3d 7e40 f13b 1240
000000d0: 4fd6 0d3f c892 3b40 d04b 3840 9a19 ef3f
000000e0: 68ca a440 51d6 1a40 6973 9240 6168 863f
000000f0: 29d8 5d40 c4bc a83f e370 2c3f 96ec 3340
2.045546 0.6861279 3.55148 1.5551039 1.0851154 1.6079965 4.245046 3.2998772
2.6146083 3.3671842 1.0221163 6e-45 1.2611513 1.3439468 2.2419732 0.97453254
4.2719193 4.51451 2.221805 1.7518085 4.771197 0.4186631 4.4910727 1.0816543
1.7496941 0.9218145 2.2298555 1.0007309 4.3648367 0.8206153 3.6283913 4.205793
1.3112059 2.1089032 3.278752 0.0012460266 0.986602 1.9673628 3.8710682 0.3756033
1.1970192 3.0918376 3.5788352 3.4681947 0.6611684 3.7582889 2.661522 3.137418
0.54701686 2.9726691 3.9725149 2.2849085 0.55405134 2.9308338 2.8796272 1.8679688
5.149708 2.4193308 4.576588 1.0500604 3.4663184 1.3182607 0.6735975 2.811315

model.6.running_var f4 [64]
00000000: c001 a541 f998 2441 5ac8 7d41 eda3 d640
00000010: 399b 8740 390f 3841 c919 2b41 3bac 9b41
00000020: 5b8a cd41 f42e 4a41 52b8 8541 0400 0000
00000030: c4cd 8a41 8173 8441 f6b5 1b41 adf6 2f41
00000040: a8ab b241 124c 2042 04d0 1e41 599f cb40
00000050: 5b8f 8e41 2f58 8440 1385 8241 28ad a240
00000060: 96b2 d840 05bf 5641 8fc1 9241 7d49 7041
00000070: 2ee4 8441 6333 4140 762d 2c42 0545 8641
00000080: 8aee b741 42fa 7a41 b8e1 4a41 5d63 243b
00000090: 3422 3541 3e08 c740 9be9 1a42 b91b 5440
000000a0: ff84 7341 5bf1 e941 556e 7641 f6cb 8b41
000000b0: cbf0 0d41 688b 0942 e74b ad41 47a1 e841
000000c0: b606 8240 ecee 8141 67d8 c841 6922 0d41
000000d0: 82b2 d340 2e7c 0441 323d 5341 e453 6b41
000000e0: 976a bf41 2c0e b841 f51a 4f42 6da5 8e40
000000f0: 7139 0442 b69d af40 6cfb 9540 5b37 4c41
20.625854 10.287347 15.861414 6.7075105 4.237698 11.503716 10.693795 19.459097
25.692556 12.636463 16.715 6e-45 17.350471 16.556398 9.731924 10.997724
22.333817 40.074287 9.925785 6.3632016 17.819998 4.1357646 16.314978 5.083637
6.7718 13.421636 18.344511 15.017941 16.611416 3.0187614 43.044395 16.7837
22.991474 15.686098 12.680107 0.002508364 11.32085 6.219756 38.72813 3.314192
15.21997 29.24285 15.401937 17.47459 8.871287 34.38614 21.662062 29.078749
4.063319 16.241661 25.105665 8.820901 6.6155405 8.280317 13.20244 14.707981
23.927046 23.00692 51.776325 4.4576936 33.056095 5.488002 4.686941 12.7635145

model.8.weight f4 [2, 64]
00000000: 571d 0bbe 1d8c ddbd 194a 303d 8d5a 713d
00000010: fc7f 633d 1c45 59bc 1c03 a03d c9aa 37bc
00000020: faaa abbb cda5 0b3d b603 e2ba 2948 8fbc
00000030: c332 44bd 370c 1ebe efab 3f3e 024e 3abd
00000040: 382d b93c aba8 80bd 5744 433d 206d 9abc
00000050: 053f 09bd 5a4a db3c 4f78 af3d a8c7 8cba
00000060: 90fd 42bc 2351 75bd d31f 4bbc 1d8a 68bd
00000070: 1de8 323d bf01 39bd 88e4 88bd da68 e43c
00000080: 868e b93c 5e1e 28bb efda ecbc 4c07 1fbd
00000090: 8dc5 dcbd 18bd 8a3d 0a91 c73c fe82 06be
000000a0: 30a5 04bb 44f3 61bd f2db e6ba 0a9f a83c
000000b0: 4d87 38bd 90db 47bd 186b 1a3c 4bd6 f93c
000000c0: c9d9 10bd 9683 3dbd 5066 80bd 90b7 b03d
000000d0: 1517 f4bd da26 59bd b857 de3d f778 f0bd
000000e0: bb62 913c 5a94 adbd 6376 5dbd f274 0a3e
000000f0: b2aa 43bd 7467 a53d e2ce 0cb9 9f7a 393c
00000100: f559 6fbc 6637 793e b700 02be 7020 b537
00000110: 7415 c7bd 37a7 b53d 34f5 acbd 9069 363d
00000120: 3359 9a3d 18b7 4cbd 5b4e 253d 3648 8fbc
00000130: cac8 443d f874 efbc 8231 c23c eeda 703d
00000140: d931 d0bd 88da 063d f5f5 86bd c077 94bd
00000150: cd03 b6bd a4c8 443e fc8a 9c3c 6ed1 0bbd
00000160: 1726 7abd 23f9 753d 55a7 a93d 2e2e 853c
00000170: f3a7 28bd 9632 04be a2f0 da3c 321d 0dbd
00000180: 6744 bb3d 19e3 2e3c 2f67 9abd f3b3 a03d
00000190: 6673 8d3c d8e8 38bd 880a fc3d 7ff6 193a
000001a0: 7111 f53d cb1c a93c e729 e5bd 822b 0abe
000001b0: d8ed d23d acdb 823d e648 d23d cfe7 e33d
000001c0: 0a73 c03d 3948 533b 3bc3 b13d f705 20bd
000001d0: 7aea 323e c74e 0dbe 800e db3c 4eb8 35bd
000001e0: c7f7 aebd 4e15 393d f577 c43d 2a7e 103c
000001f0: 6aad 653d 24c4 86bc 7678 293d d4ae a0bd
-0.13585411 -0.1081774 0.043039415 0.058924247 0.055541977 -0.013261106 0.07813093 -0.011210152
-0.005238888 0.034093667 -0.0017243538 -0.017490463 -0.047899973 -0.15434347 0.18717931 -0.04548455
0.02260457 -0.06282171 0.047672596 -0.018850863 -0.033507366 0.026768852 0.08567869 -0.0010740655
-0.011901274 -0.05989183 -0.012397724 -0.05677234 0.04367839 -0.04516768 -0.06684214 0.027882028
0.022650968 -0.0025652866 -0.02891299 -0.03882532 -0.10779867 0.06774348 0.024361152 -0.13135907
-0.002024006 -0.055163637 -0.0017613156 0.020583648 -0.045050908 -0.048793375 0.009424947 0.03049769
-0.035363946 -0.04626807 -0.062695146 0.08628762 -0.11918465 -0.053015567 0.10856575 -0.11741822
0.017747274 -0.084755614 -0.05406798 0.13521174 -0.04777021 0.08076373 -0.0001342851 0.011320739
-0.01460885 0.24337539 -0.12695585 2.1591986e-05 -0.09720889 0.08869784 -0.08445206 0.044534266
0.07536545 -0.0499793 0.04035793 -0.017490488 0.04804305 -0.02923058 0.023705248 0.058802538
-0.10165758 0.03292325 -0.06589881 -0.07249403 -0.08887444 0.19217163 0.019109242 -0.034135275
-0.06107148 0.06005205 0.08283869 0.016257372 -0.041175794 -0.12909922 0.02672607 -0.03445167
0.09143906 0.0106742615 -0.07539212 0.078468226 0.01726694 -0.045143932 0.12306696 0.00058732176
0.11966217 0.020643612 -0.11189633 -0.1349316 0.10299271 0.06389555 0.102678105 0.11128198
0.09396942 0.0032239093 0.086798154 -0.03906819 0.17472258 -0.13799582 0.026740313 -0.04436522
-0.085433535 0.045186333 0.095931925 0.008819142 0.056073584 -0.016450949 0.041374646 -0.07845846

model.8.bias f4 [2]
00000000: c0e7 0f3f 4dc8 0fbf
0.56213 -0.5616501
