Trabajo2/detector_fraude/modelo/mlp_model.pt (torch, 71135 bytes, 14 tensors)

model.0.weight f4 [128, 55]
0.16664208 0.021629421 -0.2637822 0.4817546 0.10704279 0.05603821 0.027174225 -1.5174427
-0.034862403 0.13325664 -0.041284204 -0.17521842 -0.5965762 -0.12894434 -0.10438329 -0.03698601
0.10711166 -0.04865601 -0.004216751 -0.20154142 0.03203565 -0.0888149 -0.031045064 -0.06969466
0.14880742 -0.073796675 -0.13989559 -0.1297017 -0.16038029 0.017722413 0.0162716 -0.17248183
0.12219381 -0.10602027 -0.22399491 -0.16691662 -0.54553944 0.04389302 -0.8657035 -0.2119684
-0.37181693 0.2836463 0.114540145 0.22285408 0.5983959 0.21479297 -0.5364039 -0.024384975
-0.06820472 -0.041071344 -0.048279345 0.16920792 -0.28328267 -0.11345568 0.014557149 -0.32767048
-0.21107782 0.2452928 -0.8550303 -0.349597 0.08494114 0.079012945 0.4036182 -0.0688062
-0.07665046 -0.28766072 -0.09839171 -0.11589237 -0.060245264 0.11946539 0.2974022 -0.4665365
-0.46235687 0.21978137 0.49346033 0.0037254281 0.06410083 -0.26782924 0.58816665 -0.2695652
0.097170055 -0.15536036 0.31845406 0.2551909 0.17941535 -0.29327083 0.39426166 -0.015058486
0.41843015 0.31830165 0.17413507 -0.065593496 0.10234011 -0.15468998 0.16304508 -0.11898059
-0.021208748 0.004306046 0.32200214 -0.49852708 0.049654484 0.600251 0.02592236 0.21088971
0.019717569 0.09999252 0.01826232 0.28018227 0.34808958 0.065798275 0.052785415 -0.09046316
0.28413418 0.4849138 0.08221592 0.023561642 -0.11948566 0.20449354 0.5314609 0.11366567
0.111542374 0.22486635 0.06385175 -0.2694714 -0.22085443 -0.31094307 -0.21530376 -0.2543519
0.25474104 0.1725587 0.05118824 -0.23412614 -0.36627015 0.46592432 0.092801124 0.2316824
0.27522588 -0.03539748 0.4220885 0.30208936 -0.024639882 0.41762698 0.117406055 0.44912058
0.2013672 0.007793462 0.2628101 0.14675865 -0.5097838 0.23185115 0.31306463 -0.41004848
-0.11456284 0.24809974 -0.038347192 -0.04723588 0.34676397 0.08453673 -0.056120973 -0.16639525
0.054861024 0.16978535 0.09858206 -0.1271656 0.23213153 0.16391966 0.04325022 0.22362232
-0.6137647 0.060334194 0.035569582 0.07777262 0.3477748 0.055930704 -0.34895617 -0.3122513
0.12742409 -0.0527012 0.29899386 -0.22287591 0.2550912 0.084135726 0.09448094 0.2362341
0.31468612 -0.10417436 0.23465441 0.70521545 0.13367741 -0.26684493 -0.06747674 0.28312707
-0.37111604 -0.037592225 -0.15683165 -0.040027592 -0.0855726 0.112382285 0.04818808 0.25030997
0.15743753 0.05022196 -0.091959186 -0.12910064 0.0337326 0.11331125 -0.5078018 -0.19965677
0.27831495 -0.1906514 0.16837533 -0.106551 -0.12908468 -0.10689988 -0.026694749 -0.018729871
-0.25986212 0.5610933 -0.18326761 0.09637218 -0.19893336 -0.06851692 0.44902068 -0.3381899
-0.22937621 -0.11048977 0.007051331 0.8349347 -0.24393764 0.042756185 -0.15674552 -0.030671215
0.09074764 -0.023197183 -0.22457875 0.03540439 -0.22855958 -0.4109155 -0.30901733 0.11455794
0.03523328 0.085667275 -0.15672386 0.57442796 -0.09248374 0.10320175 0.2754958 0.23088758
0.1780994 0.23209125 0.15600106 0.023665156 0.36864465 0.53371924 0.4208096 0.13656405
00000000: 39a4 2a3e 2f30 b13c 760e 87be 8aa8 f63e
00000010: 4039 db3d 5288 653d 7b9c de3c 903b c2bf
00000020: e1cb 0ebd 6e74 083e a019 29bd 756c 33be
00000030: 38b9 18bf fc09 04be e8c6 d5bd a47e 17bd
00000040: 5c5d db3d 864b 47bd ac2c 8abb e060 4ebe
00000050: d037 033d 96e4 b5bd 3852 febc 13bc 8ebd
00000060: f960 183e b622 97bd ca40 0fbe 86d0 04be
00000070: bb3a 24be 982e 913c 054c 853c 149f 30be
00000080: c040 fa3d 2821 d9bd ec5e 65be 31ec 2abe
00000090: 79a8 0bbf 2bc9 333d bf9e 5dbf 3f0e 59be
000000a0: ca5e bebe 163a 913e 0694 ea3d dc33 643e
000000b0: 7930 193f b0f2 5b3e c451 09bf 00c3 c7bc
000000c0: ebae 8bbd 6d3a 28bd 90c0 45bd d744 2d3e
000000d0: 6d0a 91be 745b e8bd 1c81 6e3c 6dc4 a7be
000000e0: c924 58be 092e 7b3e 44e3 5abf 61fe b2be
000000f0: 9ff5 ad3d 8ad1 a13d 0ba7 ce3e 44ea 8cbd
00000100: ebfa 9cbd 4448 93be 9881 c9bd fb58 edbd
00000110: bdc3 76bd 45aa f43d 1a45 983e dfdd eebe
00000120: 0aba ecbe 5e0e 613e d5a6 fc3e 5026 743b
00000130: 4c47 833d ea20 89be 1792 163f 7304 8abe
00000140: 1801 c73d c916 1fbe 690c a33e 62a8 823e
00000150: a8b8 373e 9827 96be aadc c93e deb7 76bc
00000160: 7a3c d63e 6ff8 a23e 7750 323e e255 86bd
00000170: b197 d13d 0d67 1ebe 4af5 263e 18ac f3bd
00000180: f8bd adbc bb19 8d3b 77dd a43e f13e ffbe
00000190: 8062 4b3d 0daa 193f 215b d43c 79f3 573e
000001a0: bd86 a13c e1c8 cc3d dc9a 953c 0d74 8f3e
000001b0: cc38 b23e 3fc1 863d 8535 583d c044 b9bd
000001c0: 097a 913e 9f46 f83e d260 a83d 5804 c13c
000001d0: e6b4 f4bd c166 513e d20d 083f 8cc9 e83d
000001e0: 5470 e43d 5d43 663e b5c4 823d 28f8 89be
000001f0: aa27 62be ee33 9fbe 9778 5cbe 6a3a 82be
00000200: 6b6d 823e 3ab3 303e c3aa 513d c3be 6fbe
00000210: c387 bbbe a28d ee3e 840e be3d 273e 6d3e
00000220: 68ea 8c3e f3fc 10bd fc1b d83e 75ab 9a3e
00000230: 94d9 c9bc 34d3 d53e 9672 f03d 22f3 e53e
00000240: 3433 4e3e 4c60 ff3b 0c8f 863e e647 163e
00000250: 3181 02bf 636a 6d3e 024a a03e e0f1 d1be
00000260: ec9f eabd dc0d 7e3e f211 1dbd 697a 41bd
00000270: 0c8b b13e 9821 ad3d 1bdf 65bd 8463 2abe
00000280: f4b5 603d 36dc 2d3e 64e5 c93d b337 02be
00000290: e3b3 6d3e 8eda 273e 2527 313d 40fd 643e
000002a0: af1f 1dbf fd20 773d 69b1 113d 4047 9f3d
000002b0: 8a0f b23e 9817 653d 62aa b2be 67df 9fbe
000002c0: 767b 023e 37dd 57bd b915 993e 9539 64be
000002d0: 509b 823e 5a4f ac3d 397f c13d 5ae7 713e
000002e0: 8a1e a13e 5e59 d5bd 3f49 703e 0089 343f
000002f0: bbe2 083e e69f 88be 3f31 8abd 08f6 903e
00000300: ec02 bebe 4efa 19bd 7a98 20be f9f3 23bd
00000310: b040 afbd af28 e63d dd60 453d a128 803e
00000320: 4e37 213e 8bb5 4d3d 1955 bcbd f532 04be
00000330: 322b 0a3d bb0f e83d 4cff 01bf d372 4cbe
00000340: 4c7f 8e3e 1f3a 43be 956a 2c3e 6937 dabd
00000350: c62e 04be 53ee dabd f2ae dabc 636f 99bc
00000360: a60c 85be cfa3 0f3f 81aa 3bbe c75e c53d
00000370: 30b5 4bbe 9952 8cbd 0ae6 e53e 3a27 adbe
00000380: 99e1 6abe 7648 e2bd da0e e73b 48be 553f
00000390: caca 79be 1c21 2f3d e681 20be 3342 fbbc
000003a0: e6d9 b93d 0508 bebc f9f7 65be 3204 113d
000003b0: 860b 6abe 8463 d2be 8537 9ebe 5a9d ea3d
000003c0: c650 103d 5372 af3d 387c 20be b60d 133f
000003d0: 1d68 bdbd 705b d33d c90d 8d3e cb6d 6c3e
000003e0: b05f 363e 54a9 6d3e bebe 1f3e 6edd c13c
000003f0: febe bc3e d3a1 083f 5b74 d73e 72d7 0b3e

model.0.bias f4 [128]
0.008448445 0.26164433 0.7581059 -0.08530774 1.2232984 0.21142897 -0.37811124 0.6167632
-0.15116614 -0.28315184 -0.03605184 0.035014484 0.1228999 -0.022281962 -0.06077916 1.685161
-0.08893132 1.7266066 -0.1708316 -0.23392236 0.48045936 -0.22307022 -0.26742628 1.9407016
0.9066902 -0.029797038 1.8288366 0.12441487 -0.16016468 1.5530146 0.030157689 0.09762616
-0.047024228 -0.105985865 0.083239004 0.1721892 -0.40060467 -0.08658033 -0.16756696 0.42536008
0.5562132 -0.054674566 0.10605658 1.3849088 -0.20009218 -0.12488868 0.39274332 1.1620857
-0.17260072 -0.085946865 1.0483612 0.73769665 -0.17583407 1.8341031 0.1719138 0.04628953
-0.09478532 -0.038154095 1.5560695 0.71656835 -0.22755931 0.44140944 1.5477134 0.09635239
0.7847564 0.51442134 0.29096928 -0.061504357 0.17116237 -0.25071225 0.18764573 0.18110397
0.6733524 -0.22713742 -0.36252075 0.5308853 0.2964835 -0.037022926 1.4432074 -0.22790465
0.1753121 0.3136913 0.52612007 -0.13099642 0.9901991 0.6539916 1.5479674 -0.07442343
0.94345945 2.5207005 0.74437 -0.034333974 -0.16189215 -0.37154046 0.050195485 1.2558234
0.16720295 1.2776865 0.005515515 1.2967281 -0.2934826 0.3543844 0.56038487 -0.24234086
1.7661282 -0.10801718 1.5918912 1.4490664 -0.22026753 -0.26748496 -0.018334012 -0.11286348
0.22265431 1.6624842 1.5277914 0.13355303 0.8282416 -0.15096276 -0.34206694 -0.054341264
1.4205743 0.36900845 -0.1773408 1.3699055 0.025257956 0.7559468 0.025343895 -0.027284637
00000000: 596b 0a3c 3ff6 853e 3a13 423f d3b5 aebd
00000010: 0b95 9c3f d680 583e cc97 c1be 31e4 1d3f
00000020: 4ccb 1abe 47f9 90be 18ab 13bd 596b 0f3d
00000030: f1b2 fb3d a988 b6bc 92f3 78bd 5bb3 d73f
00000040: a021 b6bd 7201 dd3f 7bee 2ebe 5889 6fbe
00000050: c5fe f53e 856c 64be 19ec 88be e968 f83f
00000060: d91c 683f eb18 f4bc 5117 ea3f 39cd fe3d
00000070: 3602 24be 2fc9 c63f 420d f73c 39f0 c73d
00000080: 7a9c 40bd 1e0f d9bd 3679 aa3d 5e52 303e
00000090: 0e1c cdbe 0751 b1bd ac96 2bbe ccc8 d93e
000000a0: fd63 0e3f 70f2 5fbd 3134 d93d b144 b13f
000000b0: f7e4 4cbe a3c5 ffbd a715 c93e 39bf 943f
000000c0: 3ebe 30be e904 b0bd b330 863f b0d9 3c3f
000000d0: d90d 34be e4c3 ea3f 2c0a 303e 179a 3d3d
000000e0: ce1e c2bd 7847 1cbd 492d c73f 0671 373f
000000f0: 4f05 69be 6b00 e23e 791b c63f 6754 c53d
00000100: cce5 483f 1eb1 033f edf9 943e feeb 7bbd
00000110: 3045 2f3e 5b5d 80be 3426 403e 5273 393e
00000120: d360 2c3f b696 68be 529c b9be 19e8 073f
00000130: afcc 973e 5aa5 17bd 05bb b83f d65f 69be
00000140: 0485 333e 259c a03e ceaf 063f ed23 06be
00000150: b07d 7d3f fe6b 273f cc23 c63f 506b 98bd
00000160: 8f86 713f 2853 2140 088f 3e3f c8a1 0cbd
00000170: 0ec7 25be 8d3a bebe c899 4d3d d2be a03f
00000180: 4037 2b3e 3b8b a33f 7ebb b43b 30fb a53f
00000190: 5a43 96be df71 b53e 6275 0f3f 3428 78be
000001a0: 7d10 e23f 1c38 ddbd 17c3 cb3f 027b b93f
000001b0: d08d 61be caf3 88be 3631 96bc f824 e7bd
000001c0: 7eff 633e 48cc d43f ab8e c33f 20c2 083e
000001d0: a407 543f fb95 1abe 6623 afbe f294 5ebd
000001e0: 61d5 b53f adee bc3e d498 35be 1059 af3f
000001f0: c6e9 ce3c bb85 413f 009e cf3c 0884 dfbc

model.2.weight f4 [128]
1.3791522 1.0103502 1.4537485 1.0132445 0.9852361 0.80045027 1.0229797 0.8360833
0.6076131 0.8139912 0.8586155 0.9235274 0.82500654 1.6575502 1.283873 0.90056175
1.0413445 1.0752895 1.2740712 1.3297442 1.4282143 1.0303279 0.9731049 0.9145927
1.5459164 0.62655073 0.7589299 0.85345143 0.9408799 1.0852581 0.8011762 1.2738092
0.98701143 0.5174493 1.0410126 1.0257512 0.95725054 0.7075783 1.0414138 1.0455644
0.9968171 1.0052267 1.0192406 0.8429345 0.7934952 0.73943514 0.9843291 0.98548204
1.0147727 0.7916029 0.97212505 0.92615384 0.9507683 1.1002884 0.859529 0.52325034
0.7778538 0.9514983 0.8949072 1.2331045 0.9230175 0.9478565 1.1225929 1.1520966
0.9667005 0.9184436 1.0246887 0.63552487 0.9239725 0.6583801 0.9188228 0.86575556
1.1340781 0.71974105 0.96438885 0.72352374 0.8446836 1.1726284 0.90292287 0.8996978
0.82944757 0.7243361 0.94414634 0.7611795 1.0702603 0.9033865 1.0232972 0.9070201
1.1302441 1.1615368 0.8643995 0.6329155 1.1120228 0.8663601 0.9846193 1.0954769
1.0359144 1.0168641 0.8472036 1.1080725 0.8267433 0.62299466 1.1430018 1.0905722
1.1554573 0.93827206 1.1585703 0.92794573 1.1477298 0.9410877 0.9947291 1.1050003
1.2036293 0.9778566 0.9958134 1.1449281 0.8166391 0.6375168 0.7770515 1.1983048
1.5606945 0.723302 0.55027974 0.95855343 0.97563475 0.9445333 0.83909965 1.060374
00000000: 0f88 b03f 2853 813f 6e14 ba3f ffb1 813f
00000010: 6f38 7c3f 4fea 4c3f 00f1 823f 8e09 563f
00000020: 888c 1b3f ba61 503f 3ace 5b3f 4b6c 6c3f
00000030: a133 533f 9b2a d43f f355 a43f 378b 663f
00000040: c74a 853f 16a3 893f c414 a33f 0f35 aa3f
00000050: bacf b63f c9e1 833f 671d 793f bf22 6a3f
00000060: 97e0 c53f a165 203f 3b49 423f cb7b 5a3f
00000070: 81dd 703f bde9 8a3f e219 4d3f 2e0c a33f
00000080: c8ac 7c3f 8f77 043f e73f 853f d14b 833f
00000090: 5f0e 753f da23 353f 0c4d 853f 0ed5 853f
000000a0: 682f 7f3f 45ab 803f 7a76 823f 8eca 573f
000000b0: 8022 4b3f 9f4b 3d3f fefc 7b3f 8d48 7c3f
000000c0: 12e4 813f 7da6 4a3f 30dd 783f 6b18 6d3f
000000d0: 8d65 733f 40d6 8c3f 180a 5c3f bcf3 053f
000000e0: 6d21 473f 6595 733f a318 653f 5ed6 9d3f
000000f0: e04a 6c3f b9a6 723f 20b1 8f3f e777 933f
00000100: af79 773f 1f1f 6b3f 0029 833f c2b1 223f
00000110: 7689 6c3f 998b 283f f937 6b3f 28a2 5d3f
00000120: 7929 913f f340 383f 30e2 763f da38 393f
00000130: 2f3d 583f b018 963f f425 673f 9852 663f
00000140: ad56 543f 176e 393f 93b3 713f a9dc 423f
00000150: 4afe 883f 5644 673f 67fb 823f 7832 683f
00000160: d7ab 903f 3dad 943f 4949 5d3f c006 223f
00000170: c356 8e3f c7c9 5d3f 0310 7c3f 9638 8c3f
00000180: d898 843f 9a28 823f 56e2 583f 52d5 8d3f
00000190: 73a5 533f 947c 1f3f e24d 923f df97 8b3f
000001a0: 06e6 933f 9932 703f 084c 943f da8d 6d3f
000001b0: cfe8 923f 20eb 703f 91a6 7e3f a670 8d3f
000001c0: 8610 9a3f cf54 7a3f a1ed 7e3f 018d 923f
000001d0: 430f 513f 4d34 233f d9ec 463f 0d62 993f
000001e0: d6c4 c73f 522a 393f 22df 0c3f c263 753f
000001f0: 33c3 793f efcc 713f 3ccf 563f 56ba 873f

model.2.bias f4 [128]
-0.047387905 0.21447894 0.41106117 0.2010792 0.07653396 0.14165738 0.26893285 0.17988458
0.07565012 0.3713631 0.24816088 0.25454196 0.108018704 0.13065109 0.2362248 0.4111853
0.21726272 0.3557082 -0.21308964 0.14060782 0.29928765 0.2925116 -0.27750385 0.4154188
0.22009712 0.25453627 0.24755067 0.17043889 0.40495974 0.040125526 -0.35914275 -0.13029431
0.22801828 -0.002487895 0.09083627 -0.1837404 0.21858154 0.52692306 -0.05541343 0.09504618
0.3255241 -0.5249872 0.44090104 0.119167 0.2460924 -0.19282517 -0.012864974 -0.04190427
-0.010080398 0.0032554513 0.5474655 0.25892726 0.25160384 0.6286716 0.3912718 -0.16612555
0.099657215 -0.2828294 0.26253092 0.18257067 -0.16289948 0.1284007 0.255438 0.24046342
0.42366755 0.19468181 -0.1478323 0.34584 0.10091206 0.13821024 0.45192134 -0.12488773
0.26226425 -0.13280217 -0.17152417 0.49257466 0.205899 0.043549415 0.25736362 -0.5238059
0.20215905 -0.21949433 -0.12461064 0.07354337 0.13613096 0.5925153 0.5413548 -0.42047077
0.2643982 0.28998873 -0.13735671 0.26163438 -0.3592913 -0.02634219 0.12819347 0.22973618
-0.21767142 0.26557246 0.09865506 0.37455896 0.15744886 -0.08889422 0.23149547 -0.12607843
0.3799057 0.48664036 0.59672594 0.10761368 0.22463602 0.25667238 0.20678665 0.08027407
0.42455074 0.26075715 0.16520548 0.23564884 0.11795791 -0.40050012 -0.03411897 0.019683443
0.28993106 0.15708116 -0.15172634 0.20373127 -0.034910463 0.3199911 0.16958795 0.06381424
00000000: d219 42bd 5ea0 5b3e 9c76 d23e b5e7 4d3e
00000010: d6bd 9c3d a20e 113e 91b1 893e aa33 383e
00000020: 73ee 9a3d 4e23 be3e e31d 7e3e 5353 823e
00000030: e938 dd3d 66c9 053e eae4 713e e186 d23e
00000040: 1e7a 5e3e 631f b63e 2c34 5abe 7ffb 0f3e
00000050: 3b3c 993e 15c4 953e fc14 8ebe c6b1 d43e
00000060: 2461 613e 9452 823e ec7d 7d3e 8887 2e3e
00000070: e256 cf3e aa5a 243d 8fe1 b7be df6b 05be
00000080: a07d 693e f40b 23bb 5e08 ba3d 7226 3cbe
00000090: d7d3 5f3e 6ee4 063f 31f9 62bd 92a7 c23d
000000a0: 18ab a63e 9065 06bf c8bd e13e d40d f43d
000000b0: a5ff 7b3e f673 45be 9dc7 52bc d0a3 2bbd
000000c0: 4128 25bc 6959 553b b326 0c3f 1d92 843e
000000d0: 38d2 803e 9ff0 203f c754 c83e d11c 2abe
000000e0: 1519 cc3d 04cf 90be 746a 863e cef3 3a3e
000000f0: 1fcf 26be 797b 033e c5c8 823e 0b3c 763e
00000100: f4ea d83e ab5a 473e 5a61 17be f111 b13e
00000110: fbaa ce3d fc86 0d3e 3c62 e73e 23c5 ffbd
00000120: 8047 863e 4bfd 07be 08a4 2fbe bf32 fc3e
00000130: 30d7 523e df60 323d 2ac5 833e 2518 06bf
00000140: c802 4f3e 1fc3 60be dd33 ffbd e89d 963d
00000150: ea65 0b3e 15af 173f 3a96 0a3f f247 d7be
00000160: 335f 873e 6779 943e 3da7 0cbe f1f4 853e
00000170: 07f5 b7be 94cb d7bc 2645 033e f63f 6b3e
00000180: 42e5 5ebe 1df9 873e aa0b ca3d 31c6 bf3e
00000190: 463a 213e 2c0e b6bd 260d 6d3e b41a 01be
000001a0: 0083 c23e ed28 f93e 08c3 183f 9064 dc3d
000001b0: fc06 663e 906a 833e e1bf 533e bb66 a43d
000001c0: b75e d93e f681 853e a02b 293e ee4d 713e
000001d0: eb93 f13d 5a0e cdbe 55c0 0bbd 2c3f a13c
000001e0: d871 943e e2d9 203e 265e 1bbe ee9e 503e
000001f0: 46fe 0ebd e0d5 a33e 77a8 2d3e 0ab1 823d

model.2.running_mean f4 [128]
33.842136 2.3964536 1.3661622 104.35603 2.062837 66.329025 918.8992 1029.0831
1217.6487 523.24695 90.64027 1225.7926 0.6626179 1.0970367 0.3496607 3.805984
6e-45 3.017192 395.63297 0.35570803 2.2788877 6e-45 6e-45 2.6089559
2.5408225 442.9196 5.610283 1.0032723 152.7139 3.0450525 278.94708 117.42564
0.004234269 100.561874 196.47543 0.24024586 1315.511 0.0730961 0.0005515691 115.8065
242.2068 6e-45 0.5508959 3.2715561 1657.5441 0.075324245 1.5914283 3.1974697
0.0101277325 0.66724837 5.0517073 2.3218427 0.12296382 3.6869972 57.57792 0.4851141
1366.8276 6e-45 3.0937963 2.7272732 205.54413 602.96985 2.0720763 0.7246868
4.2692637 83.90719 1.1536946 6e-45 0.21684842 1131.4883 279.91113 75.08653
4.4833364 208.72873 238.99835 242.87238 288.14978 0.5600921 2.6500635 6e-45
0.2421332 127.87663 27.92365 1702.1613 2.8299325 2.2535448 2.7344654 6e-45
272.50848 4.4558067 2.1461518 1.3188603 6e-45 0.9037729 0.25874296 2.0917423
0.06810066 2.8849907 0.57624316 1.8821287 1038.8164 505.60254 122.63612 6e-45
2.215457 0.05711227 3.760472 3.7574992 38.766853 1203.6674 0.60140073 1385.8616
0.04162414 4.240106 2.028787 0.7340071 1.7905402 8.6554783e-35 273.4752 0.26398772
4.1364827 3.5714164 297.55103 2.3667598 0.13212149 2.4082613 4.346027 1.0142883
00000000: 595e 0742 7f5f 1940 67de ae3f 4ab6 d042
00000010: 8505 0440 76a8 8442 8cb9 6544 a9a2 8044
00000020: c234 9844 cecf 0244 d147 b542 5d39 9944
00000030: 54a1 293f b36b 8c3f ba06 b33e 3e95 7340
00000040: 0400 0000 ac19 4140 05d1 c543 5d1f b63e
00000050: 4cd9 1140 0400 0000 0400 0000 22f9 2640
00000060: d69c 2240 b575 dd43 7087 b340 3a6b 803f
00000070: c2b6 1843 24e2 4240 3a79 8b43 edd9 ea42
00000080: 9fbf 8a3b ae1f c942 b679 4443 0303 763e
00000090: 5a70 a444 68b3 953d 2d97 103a ee9c e742
000000a0: f134 7243 0400 0000 8407 0d3f 2d61 5140
000000b0: 6931 cf44 9943 9a3d ecb3 cb3f 58a3 4c40
000000c0: caee 253c cad0 2a3f 96a7 a140 1299 1440
000000d0: 75d4 fb3d c3f7 6b40 ca4f 6642 e060 f83e
000000e0: 7cda aa44 0400 0000 c200 4640 a58b 2e40
000000f0: 4c8b 4d43 12be 1644 e69c 0440 1385 393f
00000100: cf9d 8840 7bd0 a742 44ac 933f 0400 0000
00000110: 830d 5e3e a06f 8d44 a0f4 8b43 4e2c 9642
00000120: 7e77 8f40 8eba 5043 94ff 6e43 54df 7243
00000130: 2c13 9043 3262 0f3f a49a 2940 0400 0000
00000140: c4f1 773e d6c0 ff42 a363 df41 29c5 d444
00000150: 9d1d 3540 143a 1040 7b01 2f40 0400 0000
00000160: 1641 8843 f895 8e40 8d5a 0940 6ad0 a83f
00000170: 0400 0000 a95d 673f f579 843e 1bdf 0540
00000180: 5c78 8b3d b0a3 3840 ac84 133f 98e9 f03f
00000190: 20da 8144 20cd fc43 b245 f542 0400 0000
000001a0: 0cca 0d40 8eee 693d 93ab 7040 de7a 7040
000001b0: 4211 1b42 5b75 9644 66f5 193f 923b ad44
000001c0: 137e 2a3d f3ae 8740 a5d7 0140 e4e7 3b3f
000001d0: 6c30 e53f 221a e606 d3bc 8843 6629 873e
000001e0: 115e 8440 1692 6440 88c6 9443 fe78 1740
000001f0: db4a 073e f420 1a40 a712 8b40 33d4 813f

model.2.running_var f4 [128]
37261.973 2.0574615 0.95942765 356125.4 1.5576992 133547.34 2.8186242e+07 3.5153104e+07
4.9489308e+07 9.140309e+06 267125.97 5.0078948e+07 0.6476057 0.80352527 0.4146234 1.988854
6e-45 2.2916603 5.221874e+06 0.47361985 1.7126641 6e-45 6e-45 1.34212
1.5512898 6.547808e+06 3.538907 1.1799453 744799.75 1.2124426 2.5503755e+06 431886.62
0.0146100875 337773.34 1.2803242e+06 0.2935586 5.7767908e+07 2.0214775 0.0002698241 414811.6
1.908974e+06 6e-45 0.582042 1.859309 9.170757e+07 0.2144414 1.3763589 1.7973912
0.0066715344 0.7074294 2.4449773 3.2686071 0.20148732 1.1654695 96764.83 4.062212
6.236172e+07 6e-45 1.6893157 1.5561862 1.4071499e+06 1.2041329e+07 1.3432397 1.2303694
2.2477262 215920.8 19.638868 6e-45 0.4714369 4.273705e+07 2.5563272e+06 180664.31
1.816589 1.4489988e+06 1.9031818e+06 1.9049598e+06 2.7511322e+06 0.7614492 1.1977179 6e-45
0.28816697 506581.25 20675.32 9.670908e+07 1.9887679 1.3400925 1.8255249 6e-45
2.4112102e+06 2.118242 1.2753778 2.2926772 6e-45 0.98247606 0.26630044 1.7369338
0.10317036 1.2653091 1.1778579 1.2740258 3.602084e+07 8.429016e+06 468162.84 1.1e-44
1.3581244 0.42501298 1.419278 1.817615 44292.516 4.8361716e+07 0.6613503 6.410994e+07
0.046975706 1.7187128 0.86991423 0.8500611 1.3275937 1.4946152e-35 2.4896995e+06 0.28644207
1.8254715 3.7041433 2.9490108e+06 1.0742631 0.13057521 1.2936872 3.7262633 0.95168996
00000000: f98d 1147 73ad 0340 0d9d 753f ade3 ad48
00000010: b062 c73f d66a 0248 410b d74b 3419 064c
00000020: 67c9 3c4c 5578 0b4b bf6e 8248 3909 3f4c
00000030: 7dc9 253f d5b3 4d3f 8549 d43e c592 fe3f
00000040: 0400 0000 90aa 1240 e45b 9f4a 4d7e f23e
00000050: 9438 db3f 0400 0000 0400 0000 97ca ab3f
00000060: aa90 c63f c0d2 c74a 747d 6240 7308 973f
00000070: fcd5 3549 5231 9b3f 9ea9 1b4a d4e1 d248
00000080: 265f 6f3c abed a448 224a 9c49 504d 963e
00000090: f95d 5c4c e35f 0140 2d77 8d39 738b ca48
000000a0: 7007 e949 0400 0000 b400 153f d6fd ed3f
000000b0: 16eb ae4c 8796 5b3e 872c b03f ea10 e63f
000000c0: e39c da3b 181a 353f 827a 1c40 dc30 5140
000000d0: b152 4e3e 1b2e 953f 6afe bc47 a4fd 8140
000000e0: 1ee4 6d4c 0400 0000 7f3b d83f 1c31 c73f
000000f0: 6fc5 ab49 71bc 374b 47ef ab3f bf7c 9d3f
00000100: bfda 0f40 33dc 5248 671c 9d41 0400 0000
00000110: 2d60 f13e 6607 234c 9d06 1c4a 146e 3048
00000120: fd85 e83f 36e1 b049 6e52 e849 fe89 e849
00000130: 71ea 274a 56ee 423f d24e 993f 0400 0000
00000140: 9f8a 933e a85a f748 a486 a146 3b75 b84c
00000150: f28f fe3f 2788 ab3f cdaa e93f 0400 0000
00000160: 292b 134a 4791 0740 943f a33f 39bb 1240
00000170: 0400 0000 8d83 7b3f 8858 883e d953 de3f
00000180: fb4a d33d a6f5 a13f 0cc4 963f 4713 a33f
00000190: 9a68 094c d89d 004b 5b98 e448 0800 0000
000001a0: 05d7 ad3f 4d9b d93e e7aa b53f 9ca7 e83f
000001b0: 8404 2d47 3d7c 384c 414e 293f 5d8f 744c
000001c0: 9969 403d c8fe db3f b3b2 5e3f 9b9d 593f
000001d0: 97ee a93f 4cef 9e05 8ef5 174a 89a8 923e
000001e0: 0da9 e93f af10 6d40 4bfe 334a 7481 893f
000001f0: 82b5 053e 8b97 a53f 197b 6e40 f4a1 733f

model.4.weight f4 [64, 128]
-0.40814483 0.26590595 -0.33973598 -0.18729995 0.2779083 -0.055151824 -0.10194817 -0.2507522
-0.40794215 -0.14655253 0.09711897 0.15924256 0.06948731 -0.5398819 -0.14268078 0.052033074
-0.018749613 -0.2520869 -0.076377176 -0.2562894 0.022932928 0.07488317 -0.33988726 -0.078850985
-0.23690648 0.29565647 0.052379258 -0.021819647 0.10783698 0.019641222 0.10898073 -0.19712706
-0.06112377 -0.2679191 -0.0829138 -0.15422931 -0.4353167 0.19571571 -0.11541851 0.3280615
0.37637997 -0.17261477 0.23910658 0.27771327 -0.40841976 0.09919222 0.25715944 0.10161215
-0.38597253 -0.09764388 0.0782571 0.2860451 0.16142008 0.11353251 0.003708177 0.23631454
-0.35839045 0.051305432 0.09871809 -0.16710454 0.31452495 -0.04988822 -0.018877093 -0.07530358
0.14780934 0.09157703 0.053337675 0.23908775 -0.058125675 -0.4769505 0.18418285 0.14928019
-0.24890205 -0.23556119 -0.014227074 0.10384177 -0.2511049 0.27421328 0.41032463 0.008924722
0.27830747 -0.08004375 -0.08982687 -0.26357365 0.61134493 0.067730755 0.17262699 -0.086274795
-0.29055744 -0.14726016 0.24315268 0.1525036 -0.3281909 -0.0074975095 -0.04548381 0.065366335
-0.4280018 -0.18206121 -0.24200355 -0.27817756 -0.4553029 0.04681953 -0.20831588 -0.32791927
-0.020015696 -0.3102479 -0.11651456 0.10927128 -0.21041772 -0.8419036 0.121968836 -0.40549877
0.26936132 -0.16660368 0.17083074 -0.38381013 0.36282352 -0.16912705 0.22540386 0.0746317
-0.24368402 0.14401557 -0.0155906575 0.13060309 0.33005857 0.24520582 0.812423 0.35333553
-0.16778234 -0.24967866 -0.2652784 -0.16728225 0.058354907 -0.079160675 -0.09388716 -0.4630233
0.028329674 -0.14334051 0.20235056 0.0761171 -0.096619666 -0.16524698 -0.5299929 -0.07979563
-0.021520924 0.09530171 -0.06522068 -0.17675416 -0.43501067 0.031368356 0.07687592 -0.21079436
-0.23164159 0.19643703 0.074698746 0.035272356 -0.3201074 -0.31203005 -0.08468148 -0.17386886
-0.24027932 -0.21984442 -0.0801952 0.017166557 0.115180194 0.15824275 -0.07256825 0.15682212
-0.33031136 0.22632466 -0.06546834 0.0088901725 0.008980365 -0.16983949 -0.308542 -0.24100891
-0.40120023 -0.23859766 0.16329986 0.027606836 -0.46024707 -0.5922249 -0.30430183 0.10039096
0.12791674 0.096219614 -0.29163235 -0.39090487 -0.009583578 -0.56165373 -0.077136315 0.18920879
-0.0466278 0.09315463 0.28170237 -0.3092632 -0.04075684 0.0527656 -0.28786603 0.19299257
-0.31673348 0.08379657 0.04679148 -0.21860239 -0.33807015 0.2915842 0.16108486 0.23032828
-0.18957323 0.07561361 -0.34662226 -0.02400985 -0.03483986 -0.18856636 0.03749867 0.2408277
-0.07070971 -0.21297997 0.17280965 0.29079428 -0.23590276 -0.2891278 -0.46243596 -0.31867337
0.054222815 0.023628535 0.28279197 0.07761893 0.0004716959 -0.03306546 -0.2727647 -0.11645459
-0.31411433 -0.30242878 0.11870591 0.1911479 -0.11134555 -0.16132046 -0.14969863 -0.031478826
0.003259925 -0.57732093 -0.62754434 -0.3244498 -0.11053847 0.12514886 -0.18843096 -0.4743686
-0.072344825 -0.22684789 0.22409543 -0.25574967 -0.42930624 -0.27284557 -0.034933344 -0.075981446
00000000: 5cf8 d0be d324 883e e0f1 adbe 8fcb 3fbe
00000010: ff49 8e3e e1e6 61bd 34ca d0bd 9862 80be
00000020: cbdd d0be de11 16be 4fe6 c63d 7b10 233e
00000030: 5d4f 8e3d b335 0abf e91a 12be a220 553d
00000040: ca98 99bc 8911 81be a36b 9cbd 5d38 83be
00000050: d6dd bb3c 595c 993d b405 aebe a07c a1bd
00000060: 9d97 72be 4960 973e a28b 563d 1ebf b2bc
00000070: a2d9 dc3d a1e6 a03c 4a31 df3d addb 49be
00000080: eb5c 7abd b12c 89be b6ce a9bd 4aee 1dbe
00000090: d5e1 debe b369 483e 8a60 ecbd adf7 a73e
000000a0: e0b4 c03e edc1 30be 5bd8 743e 6f30 8e3e
000000b0: 651c d1be 4a25 cb3d 67aa 833e 081a d03d
000000c0: 319e c5be 84f9 c7bd 4245 a03d 8174 923e
000000d0: 4e4b 253e bc83 e83d e304 733b 70fc 713e
000000e0: f47e b7be a525 523d b62c ca3d 741d 2bbe
000000f0: 6a09 a13e 9757 4cbd 22a4 9abc c338 9abd
00000100: 555b 173e bd8c bb3d 9b78 5a3d 6bd3 743e
00000110: 3015 6ebd db32 f4be 6e9a 3c3e e8dc 183e
00000120: 2ee0 7ebe f436 71be ac18 69bc feaa d43d
00000130: d290 80be af65 8c3e 1216 d23e ff38 123c
00000140: 517e 8e3e faed a3bd 26f7 b7bd 20f3 86be
00000150: 1a81 1c3f 6cb6 8a3d 21c5 303e d7b0 b0bd
00000160: f2c3 94be 5ecb 16be 04fd 783e e729 1c3e
00000170: a308 a8be abad f5bb 3b4d 3abd c9de 853d
00000180: 0d23 dbbe 416e 3abe c7cf 77be 4a6d 8ebe
00000190: 761d e9be d6c5 3f3d c250 55be 09e5 a7be
000001a0: f5f7 a3bc d0d8 9ebe 309f eebd 9fc9 df3d
000001b0: be77 57be ff86 57bf ccca f93d 899d cfbe
000001c0: bae9 893e 289a 2abe 41ee 2e3e c382 c4be
000001d0: 01c4 b93e a42f 2dbe 45d0 663e 81d8 983d
000001e0: 4e88 79be d178 133e f56f 7fbc d1bc 053e
000001f0: 70fd a83e 3c17 7b3e f4fa 4f3f 65e8 b43e
00000200: 22cf 2bbe c3ab 7fbe 92d2 87be 0a4c 2bbe
00000210: 8e05 6f3d fe1e a2bd e947 c0bd 6411 edbe
00000220: a213 e83c dbc7 12be fc34 4f3e 48e3 9b3d
00000230: 88e0 c5bd 8136 29be 9dad 07bf e46b a3bd
00000240: a64c b0bc 8b2d c33d 6b92 85bd 0bff 34be
00000250: b8b9 debe 1b7c 003d 1f71 9d3d 7ada 57be
00000260: 7433 6dbe ca26 493e a8fb 983d bf79 103d
00000270: 1ee5 a3be 67c2 9fbe 7c6d adbd ae0a 32be
00000280: c80b 76be e51e 61be 623d a4bd e1a0 8c3c
00000290: 98e3 eb3d 630a 223e aa9e 94bd fa95 203e
000002a0: 921e a9be a7c1 673e 4414 86bd 16a8 113c
000002b0: 6122 133c 67ea 2dbe 38f9 9dbe 0acb 76be
000002c0: 1e6a cdbe f252 74be 1438 273e bb27 e23c
000002d0: 81a5 ebbe 0d9c 17bf 73cd 9bbe c799 cd3d
000002e0: 9bfc 023e ca0e c53d d650 95be af24 c8be
000002f0: 7104 1dbc 8ac8 0fbf a5f9 9dbd f3bf 413e
00000300: cbfc 3ebd dbc7 be3d 4b3b 903e bf57 9ebe
00000310: a5f0 26bd be20 583d 2d63 93be d89f 453e
00000320: e42a a2be 899d ab3d 6ca8 3f3d 4ed9 5fbe
00000330: 8817 adbe 864a 953e 6ef3 243e 2ddb 6b3e
00000340: 7c1f 42be 4fdb 9a3d 7978 b1be 4eb0 c4bc
00000350: 3eb4 0ebd 8a17 41be 3598 193d 899b 763e
00000360: 41d0 90bd 6c17 5abe 03f5 303e fde2 943e
00000370: 7e90 71be 8f08 94be 68c4 ecbe 2829 a3be
00000380: be18 5e3d a190 c13c 1cca 903e acf6 9e3d
00000390: f44d f739 a66f 07bd d1a7 8bbe be7f eebd
000003a0: 98d3 a0be f2d7 9abe 161c f33d 46bc 433e
000003b0: 2309 e4bd 3131 25be 994a 19be f1ef 00bd
000003c0: 77a4 553b 4ecb 13bf bfa6 20bf 491e a6be
000003d0: fe61 e2bd 0627 003e 0cf4 40be 71e0 f2be
000003e0: 8629 94bd d04a 68be 4679 653e 9ff1 82be
000003f0: 07ce dbbe 6ab2 8bbe 4416 0fbd 299c 9bbd

model.4.bias f4 [64]
0.40975022 -0.35322034 0.2266332 -0.07224166 -0.6169287 0.09934728 0.23244947 0.4135895
-0.3607887 0.55982155 0.7958413 0.11336148 0.3985349 -0.666662 -0.21754377 -0.11937639
0.10331378 0.17825694 0.4670173 0.4785878 0.13031752 -0.1748648 0.23881125 -0.61958677
0.45470285 -0.08884441 0.248821 0.5274457 0.29887185 0.054616243 0.6520344 -0.36476144
-0.3279699 -0.38534608 0.24147874 0.981597 0.43931 -0.42714632 -0.2872816 0.5255924
0.66214436 0.5542594 -0.11244729 -0.5065151 0.39985687 0.5431675 -0.790722 0.15486859
0.707358 -0.09090062 0.57550687 0.16637306 0.35722145 -0.1105712 0.16522191 -0.05739016
-0.20173539 -0.6855192 0.45239136 0.86018765 -0.26496717 -0.03938951 0.19359666 -0.42564055
00000000: c8ca d13e 4cd9 b4be 8912 683e 6ff3 93bd
00000010: 0aef 1dbf 9676 cb3d 3c07 6e3e 01c2 d33e
00000020: 4cb9 b8be 7750 0f3f 41bc 4b3f 102a e83d
00000030: c40c cc3e 5caa 2abf cbc3 5ebe 9c7b f4bd
00000040: 2d96 d33d fd88 363e e41c ef3e 7609 f53e
00000050: f571 053e c20f 33be f08a 743e 3d9d 1ebf
00000060: d0ce e83e 0ff4 b5bd efca 7e3e ae06 073f
00000070: bb05 993e 48b5 5f3d baeb 263f 03c2 babe
00000080: aceb a7be 154c c5be 3446 773e f149 7b3f
00000090: 3eed e03e ecb2 dabe 9316 93be 398d 063f
000000a0: 4b82 293f f2e3 0d3f c44a e6bd f9aa 01bf
000000b0: 0aba cc3e 060d 0b3f c26c 4abf df95 1e3e
000000c0: 6a15 353f 1b2a babd 6b54 133f b35d 2a3e
000000d0: bbe5 b63e 2773 e2bd ef2f 293e f211 6bbd
000000e0: b993 4ebe 307e 2fbf d79f e73e 4235 5c3f
000000f0: c7a9 87be e556 21bd 343e 463e 8fed d9be

model.6.weight f4 [64]
0.2893937 0.3837511 0.2861049 0.33209354 0.5077913 0.25768796 0.3837551 0.34454116
0.5188468 0.3362309 0.38382694 0.2109376 0.34885344 0.45247552 0.45433655 0.27753848
0.29065835 0.28485277 0.4055332 0.42837435 0.40375513 0.43579152 0.35667318 0.49844065
0.33024964 0.512201 0.29495332 0.36620176 0.44835266 0.38223124 0.3193354 0.43993038
0.44444805 0.32283774 0.3005855 0.32382506 0.3882705 0.4232251 0.39443034 0.35537285
0.34804925 0.37153977 0.3522711 0.49338368 0.2762298 0.24103789 0.097861856 0.33939984
0.2643734 0.3854271 0.3187887 0.48430923 0.31798956 0.33989727 0.31366423 0.43498352
0.5588941 0.35395992 0.35158223 0.35545215 0.49375632 0.32093102 0.36974785 0.48568296
00000000: 692b 943e 067b c43e 577c 923e 2a08 aa3e
00000010: 9cfe 013f adef 833e 8c7b c43e b367 b03e
00000020: 25d3 043f 7526 ac3e f784 c43e 0700 583e
00000030: eb9c b23e dfaa e73e cd9e e83e 8619 8e3e
00000040: 2cd1 943e 39d8 913e 0ca2 cf3e e253 db3e
00000050: feb8 ce3e 1120 df3e de9d b63e 9d33 ff3e
00000060: 7b16 a93e 9b1f 033f 1f04 973e cc7e bb3e
00000070: 7b8e e53e d0b3 c33e ee7f a33e 8e3e e13e
00000080: b28e e33e fd4a a53e 58e6 993e 66cc a53e
00000090: 64cb c63e f6b0 d83e c6f2 c93e 6ef3 b53e
000000a0: 8333 b23e 763a be3e e15c b43e c99c fc3e
000000b0: fe6d 8d3e a3d2 763e cc6b c83d d1c5 ad3e
000000c0: f35b 873e b356 c53e 4638 a33e 61f7 f73e
000000d0: 87cf a23e 0407 ae3e 9998 a03e 29b6 de3e
000000e0: af13 0f3f 3c3a b53e 9602 b43e d3fd b53e
000000f0: a1cd fc3e 1251 a43e 974f bd3e 70ab f83e

model.6.bias f4 [64]
0.11208083 0.072961226 -0.07521153 0.12947692 0.024400342 -0.07751487 -0.076477334 0.120843306
0.1105362 0.19401124 0.109727904 0.02077696 -0.12986247 0.032747846 0.039666142 0.01606956
-0.015220807 -0.099903814 -0.0634535 -0.0022764667 -0.061528917 0.046977066 0.16003214 0.01760791
-0.08685012 0.024532259 0.07711947 -0.07747163 0.20715688 0.15470542 0.1080268 0.006939722
0.103788204 0.0034881285 -0.02885159 0.09156013 0.123898305 0.11268433 0.16902508 -0.13780956
0.07772936 0.16937 0.031909604 0.14048243 0.12081767 -0.0060450686 -0.03436011 -0.063011184
0.21847732 0.030841876 0.12408371 0.08236278 0.14345519 0.036169626 0.17076424 0.042229254
0.10070731 0.06646136 -0.1397021 0.09733872 0.10168208 0.03985068 0.21158344 0.07996584
00000000: a28a e53d b26c 953d 8108 9abd 9995 043e
00000010: 3ae3 c73c 1ec0 9ebd 26a0 9cbd b27c f73d
00000020: ce60 e23d e2aa 463e 06b9 e03d 7134 aa3c
00000030: abfa 04be 9b22 063d f778 223d 4fa4 833c
00000040: b160 79bc 5f9a ccbd e9f3 81bd c630 15bb
00000050: bf05 7cbd 066b 403d 77df 233e 773e 903c
00000060: 7ade b1bd e0f7 c83c d0f0 9d3d 72a9 9ebd
00000070: ef20 543e 196b 1e3e 283d dd3d 9c66 e33b
00000080: e98e d43d 1699 643b 2b5a ecbc e183 bb3d
00000090: 65be fd3d 0bc7 e63d e914 2d3e f31d 0dbe
000000a0: 9230 9f3d 546f 2d3e a5b3 023d a0da 0f3e
000000b0: 416f f73d b615 c6bb 30bd 0cbd 020c 81bd
000000c0: 85b8 5f3e 1aa8 fc3c 9a1f fe3d d1ad a83d
000000d0: ebe5 123e 9a26 143d d2dc 2e3e 95f8 2c3d
000000e0: a23f ce3d e51c 883d 110e 0fbe 8659 c73d
000000f0: b23e d03d 773a 233d 54a9 583e 21c5 a33d

model.6.running_mean f4 [64]
3.269199 0.36167827 2.0004332 1.5060323 0.43670732 3.107924 3.2861304 2.5316617
1.1256227 3.3898249 4.7499332 1.6280946 3.958098 0.4992953 0.6835552 1.3974106
1.7114788 2.9235687 2.6558452 3.6433718 3.2309885 0.5889489 1.889419 0.38381743
2.931811 1.2527717 2.4649158 3.4976273 2.3920348 1.7664711 1.5447875 0.85952127
1.0839316 1.0285174 3.5092826 2.5708773 1.9942901 0.9641996 0.8945318 3.9333415
2.6789885 2.7009997 1.4074119 0.6555753 2.8459785 4.239569 0.92967945 2.9640656
4.268491 1.0754101 3.067547 1.909187 2.9241352 2.4527235 2.6764576 1.4987522
1.2910147 0.5016479 4.286906 4.551672 1.1409669 1.2237755 1.815959 0.8501948
00000000: 8e3a 5140 e52d b93e 1907 0040 abc5 c03f
00000010: 1a98 df3e 3ae8 4640 f64f 5240 bf06 2240
00000020: 6814 903f e4f2 5840 74ff 9740 6765 d03f
00000030: 7a51 7d40 a2a3 ff3e 79fd 2e3f 5ade b23f
00000040: bd11 db3f c01b 3b40 5ef9 2940 012d 6940
00000050: 84c8 4e40 5bc5 163f 7bd8 f13f b883 c43e
00000060: cba2 3b40 d35a a03f 2ec1 1d40 20d9 5f40
00000070: 1917 1940 ba1b e23f 99bb c53f 9609 5c3f
00000080: 45be 8a3f 75a6 833f 1698 6040 4189 2440
00000090: e644 ff3f c9d5 763f 0900 653f debb 7b40
000000a0: 8c74 2b40 2edd 2c40 1326 b43f c8d3 273f
000000b0: 8324 3640 8daa 8740 79ff 6d3f 40b3 3d40
000000c0: 7a97 8840 0aa7 893f b152 4440 3d60 f43f
000000d0: 0825 3b40 6cf9 1c40 154b 2b40 1dd7 bf3f
000000e0: f83f a53f ff6b 003f 552e 8940 4ca7 9140
000000f0: 340b 923f ada4 9c3f 5871 e83f 5ea6 593f

model.6.running_var f4 [64]
14.575528 1.7505764 10.861816 8.291505 4.6921134 25.266327 36.050747 11.099658
15.491482 15.125555 15.800123 6.200439 47.55978 5.8404155 6.1563945 10.826649
16.110243 22.043888 28.977617 39.701656 41.759926 5.8919687 9.475215 3.4171946
21.082186 24.677181 10.82995 32.42574 11.144076 7.807391 5.4839363 12.416554
12.184267 19.035046 29.913195 7.814107 9.383431 15.760739 4.5632157 34.9012
9.447153 7.6664553 17.194387 3.632727 15.70592 43.95537 3.801776 35.681652
12.197546 11.009732 10.329386 24.722425 17.780514 61.38061 15.180878 28.032692
20.741327 3.1411872 48.26705 19.701258 13.56642 9.162363 9.236977 10.922208
00000000: 5d35 6941 e312 e03f 00ca 2d41 01aa 0441
00000010: cb25 9640 7021 ca41 f733 1042 3398 3141
00000020: 1cdd 7741 4602 7241 4ecd 7c41 ff69 c640
00000030: 373d 3e42 afe4 ba40 2f01 c540 f439 2d41
00000040: c7e1 8041 e259 b041 29d2 e741 7fce 1e42
00000050: 2a0a 2742 028b bc40 7b9a 1741 51b3 5a40
00000060: 51a8 a841 de6a c541 7a47 2d41 f5b3 0142
00000070: 234e 3241 26d6 f940 687c af40 35aa 4641
00000080: c2f2 4241 c647 9841 394e ef41 2a0d fa40
00000090: 8922 1641 fd2b 7c41 dd05 9240 d49a 0b42
000000a0: 8a27 1741 9a53 f540 1b8e 8941 997e 6840
000000b0: 734b 7b41 4dd2 2f42 4c50 7340 03ba 0e42
000000c0: 2629 4341 dd27 3041 2a45 2541 87c7 c541
000000d0: 7e3e 8e41 bf85 7542 e0e4 7241 f442 e041
000000e0: 3dee a541 3609 4940 7611 4142 2d9c 9d41
000000f0: 0e10 5941 0a99 1241 a8ca 1341 5dc1 2e41

model.8.weight f4 [2, 64]
0.007392912 -0.102017105 -0.027752742 -0.04045218 0.019893745 -0.006526659 -0.09472953 0.08719254
-0.022907495 0.005030893 0.10954846 -0.0596434 -0.12684697 -0.05819784 -0.11659397 -0.075050876
-0.09727504 -0.13803796 -0.072428845 -0.15568237 0.00061363494 -0.03451375 0.026506767 -0.0026257643
-0.0364062 -0.07399938 -0.057393953 0.023924047 0.056767453 -0.010713303 0.052613042 -0.12507513
-0.027067931 -0.03617751 -0.016176429 0.16340066 0.046507362 0.009455032 0.024971275 -0.08245792
0.005099954 0.022171244 -0.03467726 0.101094 0.07389506 -0.02671896 0.10014936 -0.11604178
0.010913499 -0.08661873 0.11852554 0.008660645 0.068618074 -0.034213793 0.062331904 0.0028288802
-0.13778542 -0.02833712 0.011302253 0.093249194 -0.11564829 0.021189079 0.067306355 -0.09482684
-0.054684695 -0.083090454 0.13306785 -0.11915698 0.08100622 0.08123068 0.02903342 -0.0034343153
0.11225775 -0.023198176 -0.04548127 -0.124987766 -0.061404336 -0.026992047 -0.00262609 0.025079664
-0.012069446 -0.06481718 0.007424786 -0.019227635 0.06561831 0.03300993 0.000524482 0.09457031
0.039542217 0.056280926 -0.07994058 0.093958296 0.0036448818 -0.09264663 -0.053159915 -0.0481272
0.08512993 0.006047966 0.119657904 0.053183712 -0.0495783 0.059124716 -0.04356141 -0.06859048
-0.05693971 -0.042602155 0.037962798 -0.01940396 -0.091127336 0.01736812 0.14516336 0.008814126
-0.06387729 0.0910671 0.049705047 0.11648058 0.009844935 0.11968018 0.021947645 0.11330605
0.016925124 -0.14795512 0.07385197 -0.009062037 -0.038903575 0.12457249 -0.042438455 0.04875961
00000000: 3e40 f23b 58ee d0bd b859 e3bc 2fb1 25bd
00000010: 35f8 a23c 95dd d5bb 8e01 c2bd 0192 b23d
00000020: 80a8 bbbc 30da a43b f15a e03d a34c 74bd
00000030: 2ce4 01be dc60 6ebd d2c8 eebd 46b4 99bd
00000040: 2338 c7bd d359 0dbe 9355 94bd 336b 1fbe
00000050: 58dc 203a 4a5e 0dbd b824 d93c 0415 2cbb
00000060: ab1e 15bd fd8c 97bd ec15 6bbd 5dfc c33c
00000070: fd84 683d da86 2fbc c680 573d b213 00be
00000080: 91bd ddbc de2e 14bd 6e84 84bc 8152 273e
00000090: 817e 3e3d 47e9 1a3c 8f90 cc3c b3df a8bd
000000a0: 841d a73b 78a0 b53c be09 0ebd 5f0a cf3d
000000b0: 4b56 973d b8e1 dabc 1c1b cd3d 50a7 edbd
000000c0: 88ce 323c 2965 b1bd 85bd f23d 61e5 0d3c
000000d0: a287 8c3d c323 0cbd bd4f 7f3d bc64 393b
000000e0: 9f17 0dbe 3f23 e8bc 162d 393c 6ff9 be3d
000000f0: 03d9 ecbd b894 ad3c ead7 893d 9334 c2bd
00000100: 0ffd 5fbd 542b aabd f042 083e 9308 f4bd
00000110: 97e6 a53d 455c a63d 7fd7 ed3c 4012 61bb
00000120: 64e7 e53d 1a0a bebc 914a 3abd 96f9 ffbd
00000130: 1d83 7bbd 6d1e ddbc 7b1a 2cbb de73 cd3c
00000140: edbe 45bc dfbe 84bd 9f4b f33b 4683 9dbc
00000150: e462 863d 6c35 073d 647d 093a 14ae c13d
00000160: 05f7 213d d486 663d e3b7 a3bd 356d c03d
00000170: f8de 6e3b 84bd bdbd 36be 59bd 0721 45bd
00000180: 9a58 ae3d 042e c63b 340f f53d 2ad7 593d
00000190: 9e12 4bbd c22c 723d 736d 32bd 2a79 8cbd
000001a0: 9d39 69bd 997f 2ebd e17e 1b3d 0ef5 9ebc
000001b0: f8a0 babd 9647 8e3c b4a5 143e 2069 103c
000001c0: 19d2 82bd 6381 ba3d 8597 4b3d 5f8d ee3d
000001d0: a64c 213c e21a f53d 8ccb b33c 010d e83d
000001e0: 8fa6 8a3c 8c81 17be b43f 973d f078 14bc
000001f0: 5b59 1fbd dd1f ff3d f2d3 2dbd 28b8 473d

model.8.bias f4 [2]
0.5845079 -0.5674244
00000000: 4fa2 153f ba42 11bf
