Trabajo2/detector_fraude/modelo/mlp_model.pt (torch, 75231 bytes, 14 tensors)

model.0.weight f4 [128, 63]
000000 8e ee a9 3e 67 39 d5 3e 62 59 c7 3e 74 57 22 3e
       0.33189815 0.41645357 0.3893538 0.15853673
000010 e7 b1 8f 3e 57 8d d8 bd 45 48 c9 3d 99 0d e5 3d
       0.28065416 -0.105738334 0.098282374 0.11184234
000020 0a f0 3b bd ce 86 09 be 74 2e 65 bd 75 4e 1b be
       -0.045883216 -0.1343033 -0.055952504 -0.15166648
000030 78 21 f1 be bc 7b 38 3e 71 c7 82 bd 43 31 3a 3d
       -0.47095847 0.18015951 -0.06385697 0.045457136
000040 34 75 bd 3c c8 3d 9a bd 22 5c ef 3e 88 b1 c0 3e
       0.023127176 -0.07531315 0.4674998 0.37635446
000050 3a e7 c7 3e b7 43 bd 3e 40 31 98 3d 84 1e 62 3d
       0.390436 0.36965725 0.07431269 0.055204883
000060 17 72 2e be c1 d8 c3 be fd 94 91 bd b6 5a 3a 3e
       -0.1703571 -0.38251308 -0.071084954 0.18198666
000070 e5 e4 b4 bd b5 5d c3 3d cb cb 9a 3e d7 89 28 bd
       -0.08832721 0.095393576 0.30233607 -0.04114708
000080 b6 60 09 3e 22 6f 9c 39 ae 19 40 be 3f 83 7f 3e
       0.13415799 0.0002983744 -0.18759796 0.2495241
000090 3c 34 1c bd 89 99 8e be 2e b7 97 3e dd 92 07 3f
       -0.038135752 -0.27851513 0.29631943 0.5295847
0000a0 6b 4b f5 be 93 ed fa 3b b5 be ad bd 70 0f 46 3e
       -0.47909102 0.0076577156 -0.0848364 0.19341826
0000b0 e0 b2 ab 3e 29 77 af 3d 85 dc b1 bd 9b 21 29 bd
       0.33534908 0.0856765 -0.08684639 -0.041291814
0000c0 1e 4e 27 be 1d 21 e7 3c 5c d1 c2 3d a5 22 64 3e
       -0.16338393 0.028214032 0.095125884 0.22278841
0000d0 0c a3 27 be 4e 88 be bc 43 a0 47 3e ec 7f 33 be
       -0.16370791 -0.023258355 0.19494729 -0.17529267
0000e0 e7 7f 77 3d 92 3a 70 3e 0e a9 96 3e dd 11 65 be
       0.06042471 0.23459843 0.29425853 -0.22370096
0000f0 8b fb 86 be 14 49 b6 3d 93 ef 7d be cb 69 49 bd
       -0.26363787 0.08900657 -0.24798422 -0.049173158
000100 27 e6 f4 be 6d cb c8 be 86 90 2d be af 02 81 be
       -0.47831842 -0.39217702 -0.16949663 -0.2519736
000110 cc d5 5c 3e 93 f4 1a 3d b1 a6 7a 3c 8f 3a 8e bd
       0.21565932 0.0378309 0.015298531 -0.06944763
000120 dc e6 a4 3d ea d4 71 3c 40 d6 9a bc 4c d5 4b 3e
       0.080518454 0.014760235 -0.01890099 0.19905585
000130 f9 a2 f7 bd 6d a2 87 bc 8a 43 0d 3e 12 e9 f8 be
       -0.120916314 -0.016556943 0.13795295 -0.4861532
000140 0d e4 f5 be 66 86 05 3e c8 04 13 3e 3c 7f 7d 3e
       -0.4802555 0.1303955 0.14357293 0.24755567
000150 bd c1 c5 3c c9 5c 35 bd 2f 5f e9 be 96 d1 16 bd
       0.024140233 -0.04427794 -0.45580432 -0.03682097
000160 04 da a4 3f 6b 69 60 3e 10 4d ad be 2a 97 77 bc
       1.2879033 0.21915214 -0.33847857 -0.015111724
000170 b4 9f 67 ba d4 07 c7 bc c9 7b 02 3f d2 d6 3b be
       -0.00088357483 -0.024295725 0.5097013 -0.18343666
000180 c5 e4 07 3e 80 6a 28 3e 5f c5 2a 3e ec 46 65 3e
       0.13270862 0.16446877 0.16676854 0.22390336
000190 d5 3b 7d 3e 31 96 c4 3d 40 c5 41 bd 6f 95 15 3e
       0.24729855 0.09598959 -0.047307253 0.14607786
0001a0 2a c0 9b 3d e8 a2 09 3f 31 09 f7 3d 2f 46 b4 3e
       0.07605012 0.537642 0.120623 0.35209796
0001b0 a6 7e d1 3d 36 f4 52 bd 25 08 84 3e 17 31 ff 3e
       0.102292344 -0.05150243 0.25787464 0.4984214
0001c0 c1 29 19 3e 2a a1 17 3d eb 08 95 bc bc bd 9c be
       0.14957334 0.037018932 -0.018192729 -0.30613506
0001d0 43 12 b4 3e e9 9c 86 be 21 30 0f 3c 66 98 83 3e
       0.35170183 -0.26291588 0.008739502 0.25702208
0001e0 d0 26 ba 3e 84 ae 32 3e c2 c6 41 bc 24 a7 02 3e
       0.36357737 0.17449385 -0.011827173 0.12759072
0001f0 fb ed e9 bc 9d 93 c5 bd 86 f8 ce 3a cd af ec 3d
       -0.02855586 -0.096472956 0.0015790618 0.11556969
000200 e9 53 ae bd 55 fe 8d be c1 65 4a bd 9f 43 9f 3e
       -0.08512098 -0.27733102 -0.049413446 0.31106278
000210 4c 27 e0 bd 1a 18 f0 3c 8f fe 8f 3d 66 e3 33 bd
       -0.10944995 0.029308368 0.07030975 -0.043918036
000220 02 ff d0 bd 77 1f 02 be 8d a6 13 be 65 07 3e 3e
       -0.10204889 -0.12707315 -0.14419003 0.18557508
000230 dd f3 d0 bd e1 23 69 bc 49 e3 0f 3f 2e 11 d7 3e
       -0.10202763 -0.014229746 0.56206185 0.42005295
000240 5c f2 2e be d0 9f b6 be 88 ff a4 be 89 da 0d 3c
       -0.1708464 -0.35668802 -0.32226205 0.00865806
000250 cc 65 1d 3e 03 6c 01 3e 2c c5 92 be 25 1f 08 bf
       0.15370864 0.1263886 -0.28666055 -0.5317252
000260 43 01 22 3e b8 e5 4d 3d 1b a0 d0 bd 61 4e 0b 3e
       0.15820794 0.050267905 -0.10186788 0.13604118
000270 59 49 a1 bd 8e 7b 01 3e 55 f8 97 be d5 2b c7 3d
       -0.07875318 0.12644789 -0.2968165 0.09725157
000280 f1 ac 50 3d af ad 4a 3c 9c 83 10 be 09 5c cd bd
       0.05094618 0.012370511 -0.14112705 -0.1002732
000290 cb c3 1e 3d 54 d4 8f 3c 50 01 38 3c 56 96 29 be
       0.03876094 0.0175573 0.011230782 -0.16561255
0002a0 1d b5 d3 be f1 ba b0 3d a6 12 22 3e 68 23 9d be
       -0.41349116 0.08629406 0.15827426 -0.30691075
0002b0 b3 6b 4f 3e e7 a6 13 3e 5f d3 a6 3e 4b b0 2d 3e
       0.20255928 0.14419137 0.32583138 0.16961782
0002c0 fe 39 03 3e 57 82 69 3e 84 a6 bf 3e 4a 04 16 3e
       0.12815091 0.22803627 0.3743173 0.14650074
0002d0 91 9b e1 bc 98 df 8f 3e a6 d3 05 be 33 c9 4b bd
       -0.02754 0.28100276 -0.13069019 -0.049752425
0002e0 4d d4 9d be b9 e3 86 be 9d b8 51 3d 90 9f ac bd
       -0.30826035 -0.26345614 0.05120145 -0.08428872
0002f0 53 7a 31 be 86 d7 cc 3d 06 2b 7e 3e e6 66 8f 3e
       -0.17331819 0.10002045 0.248211 0.28008193
000300 b3 bd f2 be 1a 4c a6 3d 85 f8 18 be b7 03 46 be
       -0.47410354 0.08119984 -0.14938553 -0.19337355
000310 c6 e3 81 3e 13 d4 d3 bd cd bd be bd 1a c7 52 3e
       0.2536909 -0.10343184 -0.093135454 0.20583764
000320 d7 9f 54 3d 2d 20 4a be 31 18 41 be 28 6c 63 be
       0.051910248 -0.19738837 -0.18856885 -0.22209227
000330 8c 23 c3 3d ed fb f9 bd ec 04 5d bc cf 43 22 be
       0.095282644 -0.12206254 -0.013489943 -0.1584618
000340 eb 73 5a bc 8e c6 23 be ff 5b 0b be 87 65 10 3e
       -0.013333301 -0.15993711 -0.13609312 0.1410123
000350 db 0a fd be d7 46 b1 be 54 92 81 3c 1e e0 12 3d
       -0.49422345 -0.3462436 0.015816845 0.035858266
000360 78 6f c0 bd c2 4b 43 3e ae ff 0e 3d ff ef fa bd
       -0.09396261 0.19071868 0.034911804 -0.12252807
000370 df ab c2 be 84 e1 34 bd 40 2d 45 be 53 40 b7 3e
       -0.38021752 -0.04416038 -0.19255543 0.35791263
000380 23 c3 99 be 68 eb 5e bd 83 58 b4 be 8a 35 03 be
       -0.3003169 -0.05442372 -0.3522378 -0.12813392
000390 c6 0a 48 be ca 30 81 be 52 4e bd 3d 5a d3 94 3e
       -0.1953536 -0.25232536 0.09243454 0.29067498
0003a0 57 2e 43 bd 7b 20 b9 bd db 54 64 be 3e 08 69 be
       -0.047651615 -0.09039398 -0.22297995 -0.2275705
0003b0 6b 92 56 be a0 38 46 be 9c a2 83 be 7a 67 1c bf
       -0.20954292 -0.19357538 -0.2571 -0.6109539
0003c0 14 6a 3b be f9 ce a6 be e3 8b 73 be d1 f5 e8 be
       -0.18302184 -0.32579783 -0.23783831 -0.45500043
0003d0 cc 04 96 be e0 93 00 bf cf f9 db bc b7 30 c3 3c
       -0.29300535 -0.5022564 -0.026852516 0.02382694
0003e0 1a 46 34 be 70 7a 7b 3e 45 6c 93 be 46 6e de 3d
       -0.17604867 0.24558425 -0.2879354 0.10860877
0003f0 f2 6d 82 be 66 82 fe bd ab 2c ac bc 2a 3c b6 bd
       -0.25474507 -0.12427215 -0.021017393 -0.08898194

model.0.bias f4 [128]
000000 5d 64 9a 3c 55 a7 e9 3e fa 07 39 3e d3 4a 94 be
       0.018846685 0.45635477 0.18069449 -0.28963336
000010 c2 df f7 3d 7e 25 81 3e f2 84 8d 3d 9a d2 4b 3e
       0.12103225 0.25223917 0.06910123 0.19904557
000020 7c ed 30 be ad 98 b7 be 46 95 4d 3d 12 1b 47 3e
       -0.17278093 -0.3585867 0.050191186 0.1944392
000030 59 e3 65 3e 54 c7 eb 3a af 13 f8 bd ca 26 c8 3d
       0.22450007 0.0017988482 -0.12113129 0.097730234
000040 66 25 99 bd 58 54 9c bd 66 bf 77 be d6 94 6b be
       -0.07477836 -0.07633275 -0.24194106 -0.23005995
000050 83 b9 c3 3e a5 7a ab be 9c b7 be 3e ea aa 4c 3d
       0.38227472 -0.33492008 0.37249458 0.049967684
000060 3c fb e1 3e 8d ae 10 3e 4c 13 62 3e 15 6d 36 be
       0.4413699 0.14129086 0.22077674 -0.17815049
000070 ba c0 48 be 95 96 a0 be a6 86 e3 3e 6c ba 1e 3e
       -0.1960477 -0.31364885 0.44438666 0.15500802
000080 c3 7c d3 3e 6c 13 13 3e fc 64 e7 3d 04 c4 02 be
       0.41306123 0.14362878 0.11298558 -0.12770087
000090 90 63 d5 bd ef e4 c9 3e 30 1b c2 3c f6 86 00 3e
       -0.10419381 0.39432475 0.023694605 0.12551484
0000a0 d5 3e 42 be e0 c8 d1 bd 86 02 d0 bd 2b 8a 63 bc
       -0.18969281 -0.10243392 -0.10156731 -0.013887922
0000b0 78 95 f6 bd fc 46 4f 3d 8a df 8e bc 9e 56 7f be
       -0.12040228 0.050604805 -0.017440576 -0.24935386
0000c0 87 bb 21 be 1d e7 bc 3e 92 33 d6 3d 52 18 b7 3c
       -0.15794192 0.36895075 0.10459055 0.022350464
0000d0 1c 99 8b 3d 63 1e 06 3f 9d fb 04 3e 4b cc 3f bd
       0.06816313 0.52390116 0.12986608 -0.04682569
0000e0 92 2b 3e 3e 91 80 a2 3d b4 fb 78 be 86 ba d3 3d
       0.18571308 0.07934678 -0.24314767 0.10338311
0000f0 cd 0a 81 3d 4a d2 8a bd fd 6d 28 3f b6 4f d9 3e
       0.06300888 -0.06778391 0.6579283 0.42443627
000100 d1 6a a7 3e 56 06 1b 3f f4 7b 5f 3f 54 33 8d 3d
       0.32698682 0.6055654 0.8729851 0.06894556
000110 ae fe e3 bb f0 42 08 3d b8 f3 2e 3e 7e ae 89 bc
       -0.0069578504 0.03326696 0.17085159 -0.016806837
000120 fb bc 6e 3d 40 1a 18 3d a9 a5 0d 3e 9c ea 83 be
       0.058285695 0.03713441 0.13832726 -0.2576493
000130 d2 99 c6 3d 51 ef 8a 3e 6c 77 10 3e d9 aa 8b 3d
       0.09697308 0.2713571 0.14108056 0.06819696
000140 9e 50 4f be b8 ec 3e be a3 24 58 bd f4 92 19 3f
       -0.20245597 -0.18644989 -0.052769314 0.5998986
000150 c2 82 2a 3e 5b a6 6f 3e c5 fc 08 be 48 63 ab 3e
       0.16651443 0.23403303 -0.13377674 0.33474183
000160 dd 23 07 3d 98 b6 8d 3e af 99 04 be 33 98 d7 bc
       0.032993186 0.2767837 -0.1294925 -0.026317691
000170 4e 57 29 be 44 b4 68 3e 0f 9e 9f 3e ae 1b 4f 3c
       -0.1653721 0.22725016 0.31175277 0.012640877
000180 65 d3 54 3b be 97 ad bc 9b 63 24 bd d5 de 1b be
       0.0032474634 -0.02119052 -0.040134054 -0.15221722
000190 39 e5 a5 be 84 7e 33 be 96 de c4 3e f4 29 0e be
       -0.32401446 -0.1752873 0.3845107 -0.13883191
0001a0 9c 72 14 be b5 21 51 be 79 03 a1 3d 3c 16 0d be
       -0.14496845 -0.20423014 0.078619905 -0.13778013
0001b0 9d bd ff bb ef 6b 90 bd c9 ba aa be d8 37 1a 3d
       -0.007804586 -0.07051837 -0.3334563 0.037650913
0001c0 f8 75 93 bd 1e da d3 bd ea 96 14 be 96 fa 7f be
       -0.07200235 -0.10344337 -0.14510694 -0.24997935
0001d0 a8 57 67 bd cd 81 60 be 5e 93 49 3e 3a 96 67 be
       -0.05648008 -0.21924515 0.19685122 -0.226159
0001e0 34 8e dc 3b 44 65 83 be db 9b e3 3e a9 d7 55 be
       0.006730819 -0.25663197 0.44454846 -0.20883049
0001f0 86 7f 68 3e 94 be bd bd 3e 84 90 be d6 db 53 3b
       0.22704896 -0.092648655 -0.28225893 0.0032327077

model.2.weight f4 [128]
000000 c6 15 8a 3e 27 f7 71 3f b9 ce 55 3f a0 ba 01 3f
       0.26969737 0.9451775 0.8351856 0.5067539
000010 83 74 c6 3e ce c3 62 3f 6d e6 4b 3f 15 fe b3 3e
       0.38760766 0.88580024 0.79648477 0.35154787
000020 39 c3 bf 3e 78 12 e1 3f 74 08 6d 3f 9c 77 49 3f
       0.3745363 1.7583761 0.92591023 0.78698134
000030 b9 dc f5 3e 5b 11 1f 3f 2f da 91 3f 12 61 ad 3f
       0.4801996 0.6213586 1.1394709 1.3545249
000040 e0 21 14 3f ed 31 41 3f 83 92 8a 3f 8c 55 8f 3f
       0.5786419 0.75466806 1.0825962 1.1197982
000050 13 85 2e 3f 43 25 5f 3f e0 1d 38 3f ac 77 d9 3e
       0.68171805 0.8716623 0.71920586 0.42474115
000060 b8 27 48 3f 7c 82 20 3f eb 58 2c 3f 80 4c c0 3f
       0.78185606 0.62699103 0.6732318 1.5023346
000070 cc ba ee 3e fe 43 42 3f 03 12 9a 3f 41 3b 3e 3f
       0.4662689 0.75885 1.2036747 0.74309164
000080 b4 c6 6c 3f 96 6d 91 3e 16 74 97 3e 6d ef 71 3f
       0.92490697 0.2840392 0.29580754 0.9450596
000090 b3 1e 6f 3f b9 77 a4 3f ce 59 55 3f 8c 4e f1 3e
       0.9340622 1.2849036 0.83340156 0.4713024
0000a0 10 71 48 3f 39 11 49 3f 57 6e 76 3f b2 6f 32 3f
       0.7829752 0.78541905 0.96262115 0.69701684
0000b0 74 aa c4 3f 56 25 79 3f 3e 48 57 3f 1e f4 d0 3e
       1.5364518 0.97322595 0.8409461 0.40811247
0000c0 4e e1 42 3f de 6e bf 3e ab 68 33 3f af 31 2f 3f
       0.7612504 0.37389272 0.70081586 0.68435186
0000d0 cf 9a 87 3f 97 eb 79 3f 04 20 15 3f 3a d7 2a 3f
       1.0594119 0.97625107 0.58251977 0.6673466
0000e0 11 95 50 3f 03 33 33 3f cb e7 62 3f 43 6a 39 3f
       0.8147746 0.6999971 0.8863494 0.7242777
0000f0 6e 56 3b 3f 97 01 2c 3f 49 a7 35 3f 47 cc 81 3f
       0.73178756 0.67189926 0.7095838 1.0140465
000100 28 91 56 3f aa c6 23 3f a2 0b 1f 3f de 85 41 3f
       0.8381524 0.6397501 0.62127125 0.7559489
000110 08 cd 07 3f b1 d4 46 3f 75 c4 00 3f 2c fb 63 3f
       0.5304723 0.7766829 0.5029977 0.8905513
000120 91 41 38 3f d6 12 b8 3f 1b 42 24 3f 2d 6d 65 3f
       0.71975046 1.4380748 0.6416337 0.89619714
000130 51 72 47 3f 28 a6 ad 3f 82 46 53 3f b1 d9 75 3f
       0.7790881 1.3566332 0.8252946 0.96035296
000140 16 cb 42 3f 25 7d 51 3f 21 42 ad 3f 60 cc 1f 3f
       0.76091135 0.8183158 1.3535806 0.62421227
000150 4e 3b 41 3f b4 97 52 3f 08 28 09 3f bd 8b 97 3f
       0.75481117 0.8226273 0.5357671 1.183952
000160 1b 7e c9 3f d5 9e 1c 3f de ad 4e 3f a5 f3 a8 3f
       1.5741609 0.6117986 0.8073405 1.3199354
000170 aa 23 49 3f 90 9a dd 3e 6d 8f ae 3f c9 b0 54 3f
       0.78570044 0.43281984 1.363752 0.8308225
000180 3e fd c8 3f 69 fa 08 3f 02 0c 1f 3f 8e aa 3e 3f
       1.5702283 0.53507096 0.621277 0.74478996
000190 ac a4 3e 3f d7 f7 1b 3f c0 45 8b 3f ca af fd 3e
       0.7447002 0.6092505 1.0880661 0.4954818
0001a0 ed 72 1f 3f db 42 36 3f ce b4 1b 3f b3 9b 59 3f
       0.6228474 0.71195763 0.6082276 0.85003203
0001b0 98 12 8e 3f 29 8a 8f 3f 85 85 14 3f 67 49 29 3f
       1.1099424 1.1214038 0.58016235 0.6612763
0001c0 74 62 0c 3f a7 c3 65 3f fe bc 49 3f 2e 55 d8 3f
       0.5483773 0.89751667 0.78804004 1.6900995
0001d0 65 5d bd 3f e6 be f1 3e 49 d7 1b 3f b7 2e 77 3f
       1.4794127 0.47215956 0.60875374 0.96555656
0001e0 5b 48 48 3f cf 09 ea 3e 8a da b1 3f 20 fd 27 3f
       0.78235406 0.45710608 1.3894818 0.65620613
0001f0 36 d6 dc 3e 17 dc fe 3e 96 58 17 3f 08 28 60 3f
       0.4313218 0.4977729 0.59119546 0.8756108

model.2.bias f4 [128]
000000 c1 26 db 3d 01 97 f2 bd 21 c4 ce 3e 02 95 96 3c
       0.10700751 -0.11845208 0.4038401 0.0183816
000010 5f 3e be 3d e9 90 42 3e 10 ba 8f 3e da 8e a6 3d
       0.0928924 0.19000591 0.28071642 0.081327155
000020 a5 3e b9 3e 70 e4 c8 be f5 94 af 3e 97 c2 b0 3e
       0.36180606 -0.39236784 0.34293333 0.3452346
000030 57 10 b3 3c cb af 25 3f 88 fc bf 3e b1 f3 35 be
       0.021858377 0.64721364 0.37497354 -0.17768742
000040 c3 4a 98 bc 4c 78 c5 3d 44 52 12 3e 6e f6 10 3e
       -0.018590337 0.096420854 0.14289194 0.14156505
000050 88 51 96 be 26 51 94 3e aa e0 a8 3e b7 d1 34 3e
       -0.29359078 0.2896816 0.32983905 0.17658125
000060 70 81 28 be 36 43 a4 3d 3e 9d c2 bd 93 0c 84 3d
       -0.16455626 0.08020632 -0.09502648 0.06447711
000070 c8 07 1e 3e f8 57 21 be 60 55 8b 3e 22 2a e1 3c
       0.15432656 -0.15756214 0.27213573 0.02748591
000080 51 b6 bc 3e 80 6f bb 3d 43 18 2b 3e 84 0a a7 3e
       0.36857846 0.09152126 0.16708474 0.3262521
000090 f8 0c a0 3e 26 73 e1 3e b5 e7 b5 3e 50 97 92 bd
       0.31259894 0.44033164 0.3552834 -0.07157767
0000a0 b1 5b 0c 3e 1b aa fa 3c c9 9d 51 3e 14 9c c6 3e
       0.13706852 0.03059869 0.20470347 0.38790953
0000b0 2b 30 e2 bd c7 b7 38 3d d7 7b d4 3e ae 49 4a 3e
       -0.110443436 0.04509714 0.41500732 0.19754669
0000c0 54 fe 08 3e eb 83 29 3e f4 f9 55 be b9 45 f9 bd
       0.13378268 0.16554229 -0.20896131 -0.12171502
0000d0 91 2e 5c 3d fd b0 f2 be af 24 4b 3e 7e e3 82 3e
       0.053755347 -0.47400656 0.19838212 0.25564188
0000e0 5c f5 4b 3e ce 58 e1 bc 8a 16 86 3e fc 53 05 be
       0.19917816 -0.027508166 0.2618907 -0.13020319
0000f0 3f 98 01 3f 2e ec b1 3c 30 10 75 be 54 cc eb bd
       0.50622934 0.021719065 -0.23931956 -0.11513582
000100 7c aa a0 be f9 c1 e0 bd ff d6 ae be dc c7 42 3e
       -0.3138007 -0.10974497 -0.34148404 0.19021553
000110 97 2f 29 3e ea 4d 96 3e 19 15 ad 3e 42 de 96 3e
       0.1652206 0.2935632 0.3380516 0.29466444
000120 36 dd 15 3f ae 7b 6d be f0 84 8b 3e ef 4f d9 3e
       0.58540666 -0.23191711 0.2724986 0.42443797
000130 35 3e ce 3e 1f ac df be fa 83 5a 3e 63 e6 68 3e
       0.40281835 -0.43686005 0.21339408 0.22744136
000140 93 02 77 3e ba a3 23 be b1 53 31 be 91 2a 83 be
       0.24122076 -0.15980425 -0.17317082 -0.25618413
000150 3b ac 6f be 7c 86 59 be 79 87 98 3e 2d df 75 be
       -0.23405544 -0.21242708 0.29790857 -0.24010916
000160 93 9e bf bd f5 42 8c be c9 ed 32 be 8e 03 02 3f
       -0.093564175 -0.27394834 -0.1747352 0.50786674
000170 ba 44 ff 3e 8a ec 27 3e 9b 27 55 3f 5d 7d ba 3e
       0.49857122 0.16398826 0.8326356 0.3642377
000180 64 69 19 bd 71 a0 23 3f a3 f7 e5 3d 8b e2 aa 3e
       -0.037454024 0.6391669 0.112288736 0.33375964
000190 ad e9 8e 3e de 2d 86 3e 77 99 ea 3e 95 88 a9 3e
       0.27912655 0.2620687 0.4582021 0.33112016
0001a0 cd 6d c0 3e d9 a4 ed 3d 67 53 87 3d 31 f7 7b 3e
       0.3758377 0.11603708 0.066077046 0.24606015
0001b0 64 1d 68 bd 70 b5 a6 3e 89 7b dc 3d c6 b7 ee 3d
       -0.056668654 0.325603 0.1076575 0.11656146
0001c0 2a 96 64 bd 9e 2a 16 3e 16 89 98 3e 21 0e 5c 3d
       -0.05580727 0.14664695 0.29792088 0.053724412
0001d0 8d 7a 82 be 38 1d c0 3e 54 05 a4 3d 5e ee 8e 3e
       -0.25484124 0.37522292 0.08008829 0.27916235
0001e0 f2 59 a4 3e 89 73 20 3d 31 12 84 be 4e a3 c0 3e
       0.32099873 0.039172683 -0.2579513 0.37624592
0001f0 2e 40 0e be d2 08 10 3e 99 56 81 3e a9 7d 7a 3e
       -0.1389167 0.14065865 0.2526138 0.24461998

model.2.running_mean f4 [128]
000000 46 fd fb 40 b2 61 3e 40 d8 f6 0f 44 3d 7a d2 3c
       7.874667 2.9747128 575.85693 0.025693053
000010 8f 0b eb 42 6c 93 f4 3f fe 5d 95 3f 36 a5 00 42
       117.522575 1.910749 1.1669309 32.16134
000020 ad 0b 92 3f 6c 48 0d 3e 47 20 01 40 f4 6d fa 43
       1.1409813 0.13797158 2.017595 500.859
000030 1b 2a 2f 40 14 4a 61 42 3e f3 0d 3f c5 1d c7 3e
       2.736945 56.322342 0.55449283 0.388899
000040 aa 15 9d 3d 46 62 0d 3e 04 00 00 00 64 32 0d 41
       0.07670148 0.1380702 6e-45 8.824802
000050 ef a0 48 40 d1 7a a3 40 b0 5a 73 42 90 f2 93 3f
       3.1348226 5.108742 60.838562 1.1558399
000060 ea 58 76 40 1b 33 88 43 96 cb 48 3f a7 f6 e3 3c
       3.849177 272.39926 0.7843565 0.027827574
000070 97 ea 26 43 c9 5c ed 20 42 c5 fb 3f 59 d5 03 40
       166.91637 4.0210762e-19 1.9669573 2.0598967
000080 9e 8c 57 43 f2 b6 25 40 e9 1f be 3f 2d 34 17 3f
       215.54929 2.589291 1.4853488 0.5906399
000090 10 3a 6b 41 6a bb cf 3f 1a d7 a3 3e 73 ab 4a 41
       14.701675 1.6229069 0.32000047 12.666858
0000a0 bc 82 46 34 b2 e7 06 3c fd 75 2a 40 3f 6f dd 3e
       1.8487748e-07 0.008233951 2.6634514 0.43248937
0000b0 60 90 82 3e ae e4 97 3f aa ac 63 41 64 18 3d 3e
       0.25500774 1.1866663 14.229654 0.18466336
0000c0 78 b8 24 43 1e 40 94 40 90 90 b2 3f 29 05 1d 42
       164.72058 4.632827 1.3950367 39.25504
0000d0 60 49 71 3f 12 db 8e 40 03 37 08 42 f0 e4 c9 41
       0.94252586 4.464242 34.053722 25.236786
0000e0 80 18 ae 43 4d 88 26 3f 1d 98 3a 3f 99 d0 f5 3f
       348.1914 0.6505173 0.72888356 1.9204284
0000f0 c7 f2 f7 43 23 9f 06 3e 33 d1 36 40 8d 5d 2a 40
       495.8967 0.13146643 2.8565185 2.66196
000100 00 13 49 40 a2 6f 18 40 ad 4a 58 40 e0 05 c0 3f
       3.1417847 2.3818135 3.3795578 1.5001793
000110 25 85 da 42 83 be 5e 3f 10 a4 7e 41 bf bb 34 43
       109.26005 0.8700945 15.915054 180.73338
000120 dd fa 0d 44 94 a8 9a 3e 0e 7f af 3f 1d 29 37 3f
       567.91974 0.3020674 1.3710649 0.7154711
000130 c0 45 d9 42 26 7a 76 3f 4a f8 bf 43 ce 38 b6 42
       108.63623 0.96280134 383.93976 91.11095
000140 0a f0 80 42 04 00 00 00 5e 24 c6 3e ce 96 67 40
       64.46883 6e-45 0.3869962 3.6185794
000150 aa 67 a1 3f c1 39 cb 3f 91 4a eb 43 01 af 0c 40
       1.2609761 1.5877 470.58255 2.1981814
000160 a9 1a d0 3e 53 f0 f5 3e 32 a8 40 3e 56 62 cc 3e
       0.4064534 0.48034915 0.18814161 0.39918774
000170 89 48 2c 44 b7 92 17 42 52 93 c4 3f e6 07 1c 42
       689.13336 37.893276 1.5357459 39.007713
000180 f9 a1 25 3f 22 06 4a 3f 3f 98 8b 40 88 25 c4 41
       0.64700276 0.7891561 4.3623347 24.518326
000190 71 c9 f8 3d e1 ac 82 3e 1a 15 f6 3f 00 bf f1 40
       0.12147797 0.2552252 1.922519 7.5545654
0001a0 04 00 00 00 f4 6e ae 43 20 02 94 3f 86 09 be 41
       6e-45 348.86682 1.1563148 23.75465
0001b0 ac 53 d4 3e c4 65 da 41 c6 8e 9e 3b 7e 1f 5e 40
       0.41470087 27.29969 0.0048387973 3.4706721
0001c0 9b 90 01 40 28 b0 ea 43 46 3f ed 40 89 0d 50 3d
       2.024451 469.37622 7.413974 0.050794158
0001d0 ee c1 61 3e b2 e4 13 42 c4 5d d6 3d 4c 9c 4b 41
       0.22046635 36.973335 0.10467103 12.725658
0001e0 43 9b fd 41 e5 1f ff 3a 80 20 f2 3f 77 f9 f8 3d
       31.700811 0.0019464461 1.8916168 0.12156957
0001f0 b4 49 fa 40 94 4f 10 3f 3e 6c 1f 3f 81 d5 16 42
       7.821497 0.56371427 0.6227454 37.7085

model.2.running_var f4 [128]
000000 46 c3 3a 44 01 4d 2e 40 56 86 20 4b 7e 59 38 3e
       747.05115 2.72345 1.052015e+07 0.18002889
000010 d9 ba 24 48 4f 2c 45 40 85 c4 90 3f ad bb 76 46
       168683.39 3.0808294 1.1309973 15790.919
000020 98 8c a5 40 a3 bb cc 3d ef 4f 36 41 b6 fa f2 4a
       5.1734123 0.09996726 11.394515 7.961947e+06
000030 12 92 89 40 a0 7e 5b 47 00 4b 36 3f e2 b9 8e 3e
       4.299081 56190.625 0.7120819 0.27876192
000040 e4 6e 0d 3e 03 9c e0 3f 04 00 00 00 b6 7a c5 44
       0.13811833 1.7547611 6e-45 1579.8347
000050 e2 5f 6d 40 1f 1b f2 43 54 c7 80 47 70 66 bf 3f
       3.7089772 484.21188 65934.66 1.4953136
000060 61 4f 9b 40 87 2d 18 4a 39 30 9b 3f 19 e0 16 3d
       4.85344 2.4932818e+06 1.2124091 0.03683481
000070 b7 f5 66 49 b2 7f d6 1e cb 78 45 40 ac ba a8 40
       946011.44 2.2710945e-20 3.0854976 5.272787
000080 9f 28 80 49 d7 0f 7a 40 63 67 fc 3f 85 d0 c9 3f
       1.0498759e+06 3.9072168 1.9719051 1.576676
000090 b6 cd 76 45 59 27 ef 3f f0 c8 2d 3f 6d 9f fa 44
       3948.857 1.8683883 0.6788473 2004.982
0000a0 ec c2 90 34 03 cc 52 3d d4 8f c9 42 19 73 33 3f
       2.6963914e-07 0.051464092 100.780914 0.700975
0000b0 66 d8 1e 3d 48 dd 65 40 09 39 64 45 12 47 21 40
       0.038780592 3.591631 3651.5647 2.5199628
0000c0 04 23 60 49 ae e7 16 41 f9 fc 0f 40 ad ca 3f 47
       918064.25 9.431562 2.2498152 49098.676
0000d0 b0 ed 48 3f 97 e3 9b 40 e2 b1 9d 46 55 77 2d 46
       0.7848768 4.871532 20184.941 11101.833
0000e0 0a 71 76 4a d4 c4 a0 3f 16 f7 1f 40 f3 0e 17 40
       4.0376985e+06 1.2560067 2.499456 2.3602874
0000f0 d0 0e db 4a 3c 59 6b 3e cf 51 1b 40 df 98 0f 40
       7.178088e+06 0.22983259 2.4268682 2.2437055
000100 1b 65 37 40 55 f6 02 40 b2 42 41 40 83 2d a5 40
       2.865546 2.046285 3.0196958 5.1618056
000110 6c 81 9f 48 49 f7 92 3f 51 f3 5d 45 5b 69 14 49
       326667.38 1.1481715 3551.2073 607893.7
000120 70 87 1e 4b 7f 0e 41 3d 94 34 ae 40 7e 23 1a 40
       1.038936e+07 0.047132965 5.443918 2.4084163
000130 1a c3 ba 48 a5 56 93 3e f4 80 81 4a ff a7 c3 47
       382488.8 0.28777042 4.243578e+06 100175.99
000140 d7 04 0a 48 04 00 00 00 d6 6d a6 3d 9a 62 79 40
       141331.36 6e-45 0.08126418 3.8966432
000150 89 aa 67 40 f7 33 b4 3f ef 32 da 4a 17 a2 b0 3f
       3.6197836 1.4078358 7.1499435e+06 1.3799466
000160 c4 12 9c 3d c1 ae 08 3f ca 01 46 3e 2d 4a e9 3d
       0.07620767 0.53391653 0.1933662 0.11391101
000170 9f dd 75 4b b3 28 31 47 72 65 2d 40 cf ed da 46
       1.6113055e+07 45352.7 2.7093167 28022.904
000180 f3 33 f2 3e 66 22 60 40 4d 05 24 44 20 1c 2a 46
       0.4730526 3.5020995 656.0828 10887.031
000190 ae 94 70 3e 90 64 d8 3f 97 13 00 40 d4 34 b9 44
       0.23494217 1.6905689 2.0011957 1481.6509
0001a0 04 00 00 00 93 60 7c 4a c7 87 bf 41 9b 79 10 46
       6e-45 4.1349488e+06 23.941298 9246.401
0001b0 02 b0 21 3e 58 e3 46 46 5c eb a3 3b 3d fc f7 42
       0.15789798 12728.836 0.0050024223 123.99265
0001c0 61 ae e3 40 6e 51 e4 4a bb c7 8d 44 4a 03 18 3d
       7.1150365 7.481527e+06 1134.2416 0.03711251
0001d0 75 3c 76 3d 87 f9 34 47 6a 9d f0 3d b6 30 e2 44
       0.06011625 46329.527 0.11748774 1809.5222
0001e0 97 8c 9a 46 a6 a2 c8 3b 9a d1 b6 3f e0 e9 73 3e
       19782.295 0.006122905 1.4282715 0.23819685
0001f0 dd 21 99 43 3d ca 0a 40 2d 65 10 40 55 0c 29 47
       306.26456 2.1685936 2.2561753 43276.332

model.4.weight f4 [64, 128]
000000 3c 61 eb bd b1 96 dd bc 4e 71 a0 3c bc 1f 01 be
       -0.11493155 -0.027049394 0.019585278 -0.12609762
000010 fd 03 bf be 3b 77 4d bc 76 af da 3d c8 e9 88 be
       -0.3730773 -0.012540634 0.10677998 -0.2674086
000020 a4 be 0a be 33 3f 3e 3e f6 f2 65 3c 51 da 21 3e
       -0.13549286 0.18578796 0.014034977 0.15805937
000030 f8 ee 95 be 4e 2c 87 3e 59 eb 3f 3e fb 39 c1 3d
       -0.2928388 0.2640099 0.18742122 0.09434887
000040 12 2f 69 be a3 6d fa 3d ae cf aa 3d d9 b7 89 3d
       -0.22771862 0.12227943 0.08340393 0.06724519
000050 80 56 ca be 35 49 a5 bd 18 46 a4 3d 5a 79 5c 3d
       -0.3951912 -0.08070604 0.08021182 0.053826667
000060 49 39 73 bd 38 98 4d bd 7b 90 ae bc 38 81 ae 3d
       -0.059380803 -0.050193995 -0.021309128 0.0852074
000070 41 fa 83 3d 6c 3f 86 be 81 90 2b 3c 76 93 da bd
       0.064442165 -0.26220262 0.010471464 -0.10672657
000080 3e c0 19 3e 10 9d eb bd 1b c9 16 3d 07 54 11 bd
       0.15014741 -0.11504567 0.036812883 -0.035480525
000090 bc 31 ff bd b1 44 1a 3e b0 83 2f bd 5d ae 3f 3d
       -0.12460658 0.15065266 -0.042850196 0.046797145
0000a0 1a e6 47 be 15 41 d7 bd 23 d2 bd bd 55 76 85 3e
       -0.1952137 -0.1051046 -0.09268596 0.26066843
0000b0 4e 8a 1e bf a7 9e 52 bd ae 66 a1 3d 42 b1 03 3d
       -0.61929786 -0.051420834 0.07880913 0.032151468
0000c0 5e 7d 29 bd 7f 01 a4 3d 42 0d 0a 3d e6 56 f0 be
       -0.041379325 0.08008098 0.03370405 -0.46941298
0000d0 81 b0 b1 3d 6c d3 e4 3d ac 31 92 bd 82 4c 7f 3d
       0.086762436 0.11173138 -0.071383804 0.062328823
0000e0 45 60 29 3d 9b 4c 58 bd d3 cc 6d bc 61 b4 6b be
       0.041351575 -0.05280743 -0.014514166 -0.23018028
0000f0 98 36 89 3d 56 98 3b be 02 de 03 bb a9 63 13 be
       0.06699866 -0.1831983 -0.002012134 -0.14393486
000100 f7 26 21 3e 53 30 fe 3d c3 83 cd be 5f a0 30 3d
       0.1573752 0.12411561 -0.4013959 0.04312169
000110 84 e8 3d 3b ba b0 1c 3e 5b ab 6a bd e2 f2 ab 3d
       0.0028977701 0.15301791 -0.057292324 0.083959356
000120 73 65 af bd ab 8e 64 bf d2 2f 21 3e 6b 3d 7c 3d
       -0.08564272 -0.89280194 0.15740898 0.06158201
000130 1f 71 c3 3d 95 e4 58 be 6e 10 d2 3d 9e 1d 41 be
       0.095430605 -0.21180947 0.1025704 -0.18858954
000140 87 14 32 bd bd c1 18 3e a4 a2 ff be d8 ce c4 bd
       -0.043476608 0.14917655 -0.49928772 -0.09609765
000150 27 ad 77 3d 09 ad e3 3c b4 43 11 3e cf b1 b4 be
       0.060467865 0.02779247 0.14185983 -0.35291907
000160 4e 78 48 bf 64 68 59 bd 8b a3 2d be f6 0e 00 3d
       -0.7830857 -0.05307807 -0.16956918 0.031264268
000170 89 70 d9 bc c2 3c c0 bc bc 63 f5 bd 2b c7 4a 3d
       -0.026542919 -0.023466472 -0.119819134 0.049506348
000180 c3 09 04 3e 60 1e 1a 3d 2b e5 8d be 3a 33 e3 3d
       0.12894349 0.037626624 -0.27713904 0.11093755
000190 2c 07 5e bc 48 00 17 3d 59 5a 09 be 37 42 11 3e
       -0.013551515 0.036865503 -0.13413371 0.14185415
0001a0 5f 7d 87 3d 46 b3 83 be 58 62 00 be 8f a2 5c 3d
       0.066157095 -0.25722712 -0.12537515 0.053865965
0001b0 db 6c 58 be 33 09 99 3c a1 a4 1a bd 52 1e 17 bc
       -0.21135275 0.018681144 -0.03775466 -0.0092235375
0001c0 07 6d 5c be a5 f4 80 bc 6e df 3d 3c 3d ff 06 3c
       -0.21525966 -0.015741656 0.011588914 0.0082395645
0001d0 cc d4 38 bf 11 27 4f 3e 6b f0 3a 3e 35 0f 56 3d
       -0.721997 0.20229746 0.18255775 0.052260596
0001e0 1d fe f7 3c 85 c8 3f bd 06 9f 56 be 4a 01 f2 bd
       0.030272538 -0.04682209 -0.209591 -0.11816652
0001f0 4d 83 22 be a0 07 c3 bd cb 82 8e be 7f 7e da 3d
       -0.158704 -0.09522939 -0.27834162 0.106686585
000200 f7 69 41 3d cf 05 9a bd 0f e3 77 3e 8a f5 32 bd
       0.047220197 -0.07520639 0.2420771 -0.043691196
000210 d0 72 1c bf 9c 4b 8d be 01 12 9a bc dd f7 0a bf
       -0.6111269 -0.27596748 -0.018807413 -0.5428446
000220 ac 0e a0 3d 5a 6e 3a be 5e 38 e2 3e dd c3 b9 be
       0.078152984 -0.18206158 0.4418363 -0.36282244
000230 d7 23 b0 3e 37 45 f8 3d 3b 37 82 be 46 30 29 be
       0.34402344 0.12122577 -0.25432763 -0.16522321
000240 d5 9c 9d bd 58 7b 6d be 8d 94 8f bd 12 02 6a be
       -0.07695929 -0.23191583 -0.07010756 -0.22852352
000250 1f 08 fc bc 71 99 34 3e af 26 c5 3d 92 12 b6 bd
       -0.030765591 0.17636658 0.09626519 -0.08890261
000260 42 7b 53 3e 23 6c a8 3d 92 3a 5a be cf 7e 95 be
       0.20652488 0.082237504 -0.21311405 -0.2919831
000270 5e b4 a1 bd 6d f9 8e be 9e 06 40 3e 05 cf 9c 3e
       -0.078957304 -0.27924672 0.18752524 0.30626693
000280 b1 ad 28 bd 0c 87 09 bf 8f 01 03 3e c5 02 16 be
       -0.04118127 -0.5372169 0.12793563 -0.14649494
000290 25 6e 92 3e 9f 82 ba 3e 64 40 8c 3e a2 b2 ba be
       0.2859966 0.3642778 0.27392876 -0.3646441
0002a0 fa 0c 3d 3e f8 e0 0b 3e 78 1b 8e 3e eb 20 2b 3e
       0.18461981 0.13660038 0.27755332 0.16711776
0002b0 5b fc e8 3e 96 26 86 bd 60 3e 98 3e 17 35 0d 3e
       0.45505032 -0.065503284 0.29735088 0.13789783
0002c0 0f 40 c6 3c 79 8d 8d be 9f 84 3c bd 5b 2c c8 3a
       0.024200467 -0.27646998 -0.046024915 0.0015272008
0002d0 f2 7e be be 4e 77 8c be 18 b6 8e bd c7 3e 15 be
       -0.37206227 -0.27434772 -0.069683254 -0.14574729
0002e0 f4 d2 c7 be e3 e4 31 be 8e b6 a3 3e a0 dd d7 3e
       -0.39028132 -0.1737247 0.31975216 0.42161274
0002f0 53 89 1d be b8 9e 1b bd 85 02 d5 3c 49 b4 a6 bc
       -0.15384416 -0.037993163 0.026002178 -0.020349639
000300 69 b0 aa 3d 43 02 e2 bc f6 b0 5f 3e 0f 44 82 3e
       0.08334429 -0.02758897 0.21844849 0.2544255
000310 0e c0 e9 bc 24 44 e9 bd 19 9b 25 3e de 67 0d bf
       -0.028533962 -0.1138995 0.16172446 -0.55236614
000320 cb 41 35 3e ff af 3e 3e 12 23 9b 3e 50 dc 81 3e
       0.1770088 0.18621825 0.30300194 0.25363398
000330 e0 50 d1 3e 67 15 b2 3e d8 64 15 bc c6 2b 20 bf
       0.40882015 0.34781954 -0.009118281 -0.6256679
000340 18 06 7b 3e 76 2b d0 bd e0 4e 83 3e 2e 48 58 bd
       0.24514043 -0.101645395 0.25646114 -0.05280321
000350 3b 19 70 3c 7b d9 d3 3e 97 42 64 3d db 4c cc bc
       0.014654453 0.41376862 0.055727568 -0.024938991
000360 28 55 da 3e e6 af 04 bf 20 f6 8c be 90 0a f0 3e
       0.42643094 -0.518309 -0.27531528 0.4688306
000370 9f cc 0f be 42 03 06 3e 34 ba 22 3e 17 f3 82 be
       -0.140429 0.1308718 0.15891343 -0.25576088
000380 1d ec d6 bd 70 dc dc 3d 9a ea a2 bd fc 75 00 be
       -0.10494254 0.107842326 -0.07954903 -0.12545007
000390 9e 71 eb 3c 6b 08 f8 3d f6 81 dc 3c 59 86 9d 3e
       0.0287407 0.121109806 0.026917439 0.30766562
0003a0 ff f4 e5 3c a9 42 04 bf 2a b6 0c 3e 7f 76 8f be
       0.028070925 -0.51664215 0.13741365 -0.28020093
0003b0 00 0d 14 be 25 63 e2 3c 93 f6 13 3e 5a 6c e0 be
       -0.14458084 0.027635166 0.1444953 -0.43832666
0003c0 ed 89 da 3c e7 f6 b4 be 33 ab 9a 3e ae 38 39 be
       0.026677096 -0.35344622 0.3020874 -0.18088028
0003d0 74 5f a3 3d 88 94 5f 3d 04 4a 06 be c0 12 2a 3d
       0.079771906 0.05458501 -0.13114172 0.041521788
0003e0 f4 33 f7 3e 2a 60 4a 3c c1 ab 67 3f 70 bd 20 3e
       0.48281825 0.012352029 0.9049645 0.15697265
0003f0 f7 10 b0 bd ee cd c3 3e 51 3f 18 3d dc a0 32 be
       -0.08596986 0.3824305 0.03716976 -0.17444175

model.4.bias f4 [64]
000000 f8 1d c3 3e 84 e6 e7 3e de 91 5d 3f 93 9f 04 3f
       0.38108802 0.45293057 0.865507 0.5180599
000010 22 ba d5 3e 7b 7a 23 3f 3d 3f 1e 3d dc 31 4e 3f
       0.4174357 0.63858765 0.038634527 0.8054483
000020 9a 6a e3 3e 73 a8 67 3f fe 3e e4 be f9 f1 f2 3d
       0.44417268 0.9049141 -0.4457931 0.11862559
000030 1a 9f a1 3e 95 fb 9b 3e 4e 15 65 be 38 76 99 3d
       0.31566697 0.3046538 -0.22371408 0.074932516
000040 ba d5 cd be 0b e0 d5 3c 49 32 05 3f 21 f8 06 bf
       -0.40202123 0.026107809 0.52029854 -0.52722365
000050 1d 0f f6 3d 67 d7 60 3e 98 50 84 3d 5e 23 0f 3f
       0.120146014 0.2195717 0.064606845 0.5591334
000060 c5 0c e0 3e 1c fd 57 3e 97 6f 1e 3f a1 01 66 3f
       0.43759742 0.21092647 0.6188902 0.89846236
000070 fa 38 83 3d dd 41 33 3f 7f 44 22 3f 56 f5 b0 bd
       0.06407352 0.70022374 0.63385767 -0.08640544
000080 82 15 b6 be 0a 2c 3f 3f ca a0 49 3f 57 53 e9 3d
       -0.35563284 0.74676573 0.7876097 0.11392849
000090 be c0 48 be bc 89 0b 3f b2 a2 12 3f 85 bc 04 3e
       -0.19604775 0.5450704 0.57279503 0.1296254
0000a0 9c 2c 29 3f 79 4a 79 3f a0 93 15 be a1 bb 1c 3f
       0.66083694 0.9737926 -0.14607096 0.612238
0000b0 c7 3c a4 3f 1d 65 de be 1d 05 a7 3f cb 6b a5 3e
       1.2831048 -0.43436518 1.3048435 0.32308802
0000c0 be 78 a5 3e 3c 1c 42 3f c2 dd 96 bd d9 13 1d 3f
       0.3231868 0.7582433 -0.07366516 0.6135841
0000d0 1f 02 81 bd 62 ba 9c bc 99 29 7e 3f a9 f6 f8 3d
       -0.06299233 -0.019131843 0.99282223 0.12156422
0000e0 85 e5 a9 be a0 e5 36 3f 71 26 38 3f 1d 5c 2f 3f
       -0.33182922 0.7144413 0.71933657 0.6849993
0000f0 07 44 89 3b f2 ab df 3e 97 32 ef 3e 7e f5 48 3f
       0.0041890177 0.4368587 0.46718284 0.7849959

model.6.weight f4 [64]
000000 66 00 69 3f 2d e2 3d 3f 23 70 63 3f d8 b7 68 3f
       0.9101623 0.7417324 0.8884298 0.90905523
000010 be e0 5c 3f f4 eb 6a 3f 23 84 51 3f 8b eb 4f 3f
       0.8628043 0.91766286 0.8184225 0.81218785
000020 12 6a 53 3f 5c aa 4f 3f 4c 42 9a 3f 28 1e 33 3f
       0.82583725 0.8111932 1.2051482 0.6996789
000030 83 19 64 3f cd f5 53 3f 0f 12 2c 3f 60 9d 65 3f
       0.8910143 0.8279694 0.67215055 0.8969326
000040 e0 d1 a0 3f 70 5b 3c 3f e3 20 61 3f f4 9f 4e 3f
       1.2564049 0.7357702 0.87940806 0.8071282
000050 24 be 5b 3f 90 f6 4b 3f 41 d2 53 3f 8d 69 5c 3f
       0.85837007 0.796731 0.82742697 0.8609856
000060 32 e3 5e 3f fa 71 61 3f d6 3a 63 3f d2 89 78 3f
       0.8706542 0.8806454 0.8876165 0.970853
000070 66 78 6c 3f 70 fa 5a 3f 4b 2d 68 3f 88 31 4e 3f
       0.92371213 0.8553839 0.9069411 0.8054433
000080 e1 45 90 3f 27 3e 6b 3f 4f 02 7a 3f e8 fa 5f 3f
       1.1271325 0.9189171 0.9765977 0.8749223
000090 24 37 85 3f 60 1a 61 3f 46 f3 77 3f 24 79 76 3f
       1.0407453 0.8793087 0.9685558 0.96278596
0000a0 94 04 59 3f bb 99 88 3f 9c a5 7f 3f 78 de 69 3f
       0.8477261 1.0671915 0.99862075 0.91355085
0000b0 0c 6d 56 3f e5 bc b0 3f 39 4c 4b 3f ed ae 77 3f
       0.8376014 1.3807646 0.7941318 0.9675129
0000c0 f7 b7 56 3f 77 0b 59 3f f9 55 51 3f 86 23 71 3f
       0.8387446 0.8478312 0.8177181 0.9419483
0000d0 e5 a3 07 3f e6 d4 57 3f a4 53 4f 3f 7f 2a 52 3f
       0.5298446 0.8430923 0.80987 0.82096094
0000e0 9b 7b 60 3f a4 cf 7e 3f 16 21 80 3f 5f 9b 82 3f
       0.87688607 0.99535584 1.0010097 1.0203665
0000f0 2d 56 3c 3f f7 c7 46 3f c6 bf 60 3f f2 36 61 3f
       0.73568994 0.7764887 0.87792623 0.87974465

model.6.bias f4 [64]
000000 4f 74 e2 bd 39 13 16 3f 16 c0 df be 87 f4 0a 3e
       -0.1105734 0.5862308 -0.43701237 0.13569842
000010 15 77 b7 be 75 86 8b be 92 c6 23 3f 97 ff a0 be
       -0.3583304 -0.2725102 0.6397487 -0.31445
000020 68 fd 0e bf 5a fb e4 bd 6f af 1a 3f 00 9e b1 be
       -0.5585542 -0.11180754 0.6042394 -0.34690857
000030 75 67 22 3e f7 0d 09 3f 52 cd 7f 3d b8 c9 06 bd
       0.15859778 0.53536934 0.062451668 -0.032907218
000040 f6 4d 09 3f 27 c6 00 bd b1 83 82 be 33 67 95 3d
       0.53634584 -0.031438973 -0.25491098 0.07295074
000050 ef 96 9e 3e 51 dd 94 bc b2 a6 a4 3e 1b d0 b7 be
       0.30974528 -0.018171938 0.32158428 -0.3590096
000060 9f fb 48 3e d4 96 fe 3e 20 f5 6e be 25 32 8b be
       0.19627236 0.49724448 -0.23335695 -0.27186695
000070 32 28 11 3f 1c 3f d3 be 44 0b 87 be 28 3e c6 3e
       0.5670196 -0.41259086 -0.26375782 0.38719296
000080 c2 8a 07 3f b7 8c 80 3e 3b 7e c6 be 9d d2 d1 3e
       0.529461 0.25107357 -0.3876818 0.40980998
000090 df 56 e5 3e 21 e8 ad be 7f 93 8a be b3 2d fc 3e
       0.4479284 -0.33966163 -0.27065656 0.49253616
0000a0 29 1a ca 3e d8 8f 9a be 70 5e fb 3e 09 62 b0 be
       0.39473084 -0.3018787 0.49095488 -0.34449795
0000b0 a5 f7 6e be c0 58 7e 3e 23 ad e8 bb 4b a0 58 3e
       -0.23336656 0.24838543 -0.0071007176 0.21154897
0000c0 0f 5c 3e 3e 0d e3 37 be d0 e0 1e 3f 76 8f 37 3e
       0.18589805 -0.17957707 0.62061787 0.1792582
0000d0 db ea 75 3d e3 03 1b 3f 93 fc 9f bd 1b fd c5 3e
       0.06003843 0.60552806 -0.078118466 0.38669667
0000e0 78 08 18 3f b6 8a 92 be fe 92 ad be 11 8f e1 be
       0.5938792 -0.28621453 -0.3390121 -0.44054464
0000f0 8d 9b 16 bf e9 bb d1 be 06 d6 d7 3e 92 d7 9c 3e
       -0.588311 -0.40963677 0.42155474 0.30633217

model.6.running_mean f4 [64]
000000 13 cc 4d 40 c2 39 59 40 9a 0d 63 40 12 3c 0e 40
       3.2155807 3.3941503 3.5477052 2.2224164
000010 65 5c d1 3f f2 1e 7d 40 2b 12 30 40 29 52 83 40
       1.6356322 3.9550138 2.751109 4.1037793
000020 25 51 04 40 71 b2 b4 40 ba c4 51 3f e6 55 12 3f
       2.0674527 5.6467824 0.81940806 0.5716232
000030 2d 3c 08 40 40 ac 11 40 7c e5 76 40 81 fb 32 40
       2.1286728 2.2761383 3.8577566 2.7966006
000040 a0 27 16 3f f7 fd 62 40 7a fd 32 40 b1 e8 63 3f
       0.5865421 3.5467508 2.796721 0.89026934
000050 49 0b d7 3f f3 c7 7e 40 0c 62 98 3f d6 e4 87 40
       1.6800319 3.980954 1.1904922 4.246684
000060 c9 05 02 40 bc 27 ec 3f e4 c0 79 40 50 dd 8b 40
       2.031603 1.8449626 3.902398 4.3707657
000070 95 ec fd 3f d9 34 73 40 00 0b 7e 40 62 31 64 3f
       1.9837824 3.8001006 3.9694214 0.8913785
000080 b0 69 f4 3e a9 07 47 40 07 c6 71 40 d5 6e db 3f
       0.47736883 3.1098425 3.7777116 1.7143198
000090 28 c7 6d 3f dd f1 3f 40 13 3b 5d 40 12 24 fb 3f
       0.92882013 2.9991372 3.4567306 1.9620383
0000a0 68 2a 3e 40 45 2f 8a 40 24 3e 77 3f ca 17 5c 40
       2.9713383 4.31827 0.96579194 3.438952
0000b0 af 3c bd 40 0b 04 1f 3e 48 ab 9d 40 52 94 10 40
       5.9136577 0.15528886 4.9271584 2.2590528
0000c0 88 4a 16 40 1c d6 91 40 63 2e 3c 40 ad a9 26 40
       2.348299 4.5573864 2.9403312 2.6041062
0000d0 0a 71 6b 40 be f2 25 40 f3 4f b8 40 bd d6 f9 3f
       3.6787744 2.5929408 5.7597594 1.9518658
0000e0 00 13 17 3f 6f 6b 90 40 e0 24 4b 40 c0 8f 45 40
       0.59013367 4.5131145 3.1741257 3.0868988
0000f0 78 f5 9e 3e d1 4c 7f 40 a1 2e 1e 40 63 8b 31 40
       0.31046653 3.9890635 2.471596 2.7741325

model.6.running_var f4 [64]
000000 d8 04 d6 41 c5 ab 44 41 c9 2e cb 41 f4 aa ba 40
       26.752365 12.291936 25.397844 5.8333683
000010 79 eb a1 40 c7 67 14 42 5d 87 65 41 21 e4 0e 42
       5.059994 37.101345 14.345548 35.722782
000020 ed c6 e1 40 3d b8 84 42 b7 4e ec 3f da 63 ba 3f
       7.055533 66.35984 1.8461522 1.4561722
000030 11 e6 9f 40 bb 4e b0 40 aa e3 38 42 27 2f cc 41
       4.9968343 5.5096107 46.22233 25.523024
000040 d5 4f b6 3f 90 34 08 42 71 d2 58 41 d2 f3 93 40
       1.4243113 34.05133 13.551377 4.623513
000050 31 85 91 40 1c 25 26 42 72 e3 3a 40 24 6a 1c 42
       4.5475087 41.53624 2.9201322 39.103653
000060 5d 44 b5 40 c6 d8 8e 40 d1 04 0b 42 90 bc 13 42
       5.664595 4.4639616 34.754704 36.934143
000070 d9 bb 0f 41 01 ef fe 41 27 a8 0b 42 d1 b6 f0 3f
       8.983361 31.866701 34.91421 1.8805791
000080 21 d3 8b 3f 4c 68 29 41 4e bc e5 41 d6 40 3c 40
       1.0923806 10.587963 28.716946 2.9414573
000090 15 3c 11 40 de f4 8d 41 b0 c8 bf 41 96 66 ae 40
       2.269292 17.744564 23.972992 5.4500227
0000a0 0e 47 06 41 20 b1 03 42 67 11 3c 40 02 ac e5 41
       8.392347 32.922974 2.9385622 28.708988
0000b0 50 96 87 42 1e b7 68 3e e8 c2 14 42 e1 38 a5 40
       67.79358 0.22726104 37.19034 5.163193
0000c0 72 8d cc 40 50 19 20 42 ad b2 63 41 2b 17 f0 40
       6.3922663 40.02472 14.231122 7.502828
0000d0 5a 4a 2f 42 23 30 40 41 8c 05 5a 42 45 1e a4 40
       43.82261 12.011752 54.505417 5.128695
0000e0 34 ed 7b 3f 77 2e 30 42 27 52 9e 41 0b 65 8b 41
       0.9840882 44.045376 19.790113 17.424337
0000f0 d1 6d 2f 3f df 18 1f 42 96 01 d3 40 9a 1f 0c 41
       0.6852694 39.77429 6.5939436 8.757715

model.8.weight f4 [2, 64]
000000 9e 41 be bd b5 55 69 3e d0 65 c7 bd 32 00 27 3e
       -0.09289859 0.22786601 -0.09736216 0.16308668
000010 ee 7e ee bd a6 49 f4 bd 2f 71 a3 3e 23 03 55 be
       -0.11645304 -0.1192811 0.3192229 -0.20801978
000020 a2 69 6d be 84 9c 0f be 80 b5 5c 3f 3d dc 14 be
       -0.23184827 -0.1402455 0.8621445 -0.14537139
000030 60 44 da 3d a8 18 2d 3e 54 03 93 bd db 91 bd bd
       0.10657573 0.16903937 -0.07178369 -0.09256335
000040 c9 cc 30 3f 0a ed bc bc 96 c4 97 bd 09 7e bf bc
       0.6906248 -0.023062248 -0.07410543 -0.023375528
000050 67 80 2e 3e 7a cb b0 bd ad 8d 02 3e 3a 68 da bd
       0.17041169 -0.0863256 0.12749358 -0.10664411
000060 46 f2 bb 3d 04 00 77 3e d6 d9 a3 bd 3f 70 52 bd
       0.09177069 0.241211 -0.08000533 -0.051376577
000070 1e 5d 64 3e 21 9e 09 be 74 34 1c bd 9d c8 a6 3d
       0.22301146 -0.13439228 -0.03813596 0.08143733
000080 50 19 32 3f f9 1d 49 3e 77 2e e9 bd 6a 87 8a 3d
       0.69569874 0.1964034 -0.113858156 0.067641094
000090 25 d7 9c 3e bc a5 14 be a5 95 90 bd b9 a4 89 3e
       0.30632892 -0.14516348 -0.070597924 0.26883486
0000a0 a5 c6 89 3d 27 87 31 be b4 bc 39 3e 0a b6 28 be
       0.067273416 -0.17336713 0.18138391 -0.16475692
0000b0 f5 2b 84 3c 70 21 16 3f 29 af f7 bd f0 c5 34 3e
       0.016134242 0.5864477 -0.12093956 0.17653632
0000c0 81 9c f4 3d 16 75 1b be 12 82 a3 3e 46 82 2c 3e
       0.11943913 -0.15181383 0.31935173 0.1684657
0000d0 1a 88 30 bc bf 49 b0 3e 99 ba 7c bd 01 a9 29 3e
       -0.010774637 0.34431264 -0.06170139 0.16568376
0000e0 a4 1a 12 3f b2 9f 68 be 90 5f d8 bd f8 62 12 be
       0.570719 -0.22717169 -0.10565102 -0.14295566
0000f0 31 20 3d be 19 7d 0c be 55 3b f8 3d 7c 8b 43 3e
       -0.18469311 -0.13719596 0.12120692 0.19096178
000100 3b 32 d8 3d 6c 9f 7b be 44 ea 49 3e 70 0d 93 bd
       0.10556456 -0.24572533 0.19718271 -0.071802974
000110 0f b2 ba 3d ec 6c 29 3e 27 56 5c be 38 f5 f6 3d
       0.09115993 0.16545457 -0.2151724 0.120584905
000120 60 0f 44 3d 29 86 1a 3d e6 1e 37 bf ff ed c6 3d
       0.047866225 0.0377256 -0.7153152 0.09713363
000130 5c 93 92 bd 8e 21 a3 bc a2 34 e7 3d cb ce dc 3d
       -0.07157013 -0.019913461 0.11289336 0.1078163
000140 1d a5 5b bf a3 c6 20 3e e5 34 2e 3e ac c3 d0 3d
       -0.8579882 0.15700774 0.17012365 0.101935714
000150 27 6c a9 bd 48 25 0e 3e 28 28 f0 bd ff 4f a7 3d
       -0.082725815 0.13881409 -0.11726409 0.08169555
000160 1c 70 c8 bd 19 d3 49 be f7 c4 c4 3d a9 ac b0 3d
       -0.09787008 -0.19709434 0.096078806 0.08626682
000170 50 71 96 be 9f 54 10 3e 53 c7 d9 3d 11 a9 11 be
       -0.29383326 0.1409478 0.10633721 -0.1422465
000180 dc de 1d bf e0 00 d9 bd 3b 84 49 3e 2d a7 29 be
       -0.6166818 -0.1059587 0.19679348 -0.16567679
000190 c2 cd 85 be 22 8c 17 3e b3 79 09 3e b2 99 7e be
       -0.26133543 0.1479955 0.13425331 -0.24863318
0001a0 91 77 f0 bd 9a 11 42 3d 83 ee 82 be 39 db 04 3e
       -0.117415555 0.047380067 -0.25572595 0.12974252
0001b0 59 34 08 3e 00 04 2b bf 42 4e dc 3d d6 30 8a bd
       0.13301219 -0.6680298 0.10757114 -0.06747596
0001c0 19 48 3c bb 31 ca 54 3c 76 25 e2 be 96 94 da bd
       -0.0028729497 0.012987659 -0.44169205 -0.10672872
0001d0 1c b9 dd bc 7c d6 68 be 28 fd 7c 3e 4a f9 f2 bd
       -0.027065806 -0.2273807 0.24705946 -0.11863954
0001e0 13 58 1d bf 8f cd d1 3d fa 9d 8a 3d 82 8e 07 3e
       -0.61462516 0.10244285 0.06768413 0.13237956
0001f0 e5 4d 20 bd 52 5f a2 3d ab 05 df bd b1 06 b2 bd
       -0.039136786 0.07928337 -0.10889753 -0.086926825

model.8.bias f4 [2]
000000 fa f4 c3 3e 33 65 fd be
       0.3827284 -0.4949127
